cifar_net.pth (torch, 251167 bytes, 10 tensors)

conv1.weight f4 [6, 3, 5, 5]
0	0x3d439e34	0.047758296
1	0xbdda6dc2	-0.10665466
2	0xbdd4bcec	-0.103875965
3	0xbcfb55f0	-0.030680627
4	0x3d132b28	0.03592983
5	0x3a9e9400	0.0012098551
6	0xbd369566	-0.04457607
7	0xbc173f10	-0.009231344
8	0xbd511a5c	-0.05105053
9	0x3d0ecfe0	0.034866214
10	0xbbffca00	-0.0078060627
11	0x3d11c320	0.035586476
12	0xbd1f1cde	-0.03884589
13	0xbda83514	-0.08213249
14	0x3c409110	0.011753336
15	0x3dc50548	0.09620148
16	0x3db5ea50	0.08882582
17	0x3d966ea0	0.07345319
18	0x3ddc3a0a	0.107532576
19	0xbd911f3a	-0.07086034
20	0xbd371e24	-0.04470648
21	0xbc1d77d0	-0.009611085
22	0x3dabf93c	0.08397147
23	0xbdc68e26	-0.096950814
24	0x3c0d27e8	0.008615471
25	0xbc045500	-0.008076906
26	0xbdae1f24	-0.08502033
27	0x3d4a4d84	0.04939033
28	0x3d49c1c0	0.04925704
29	0x3d773230	0.060350597
30	0x3d970c82	0.073754326
31	0x3ce07990	0.027401716
32	0x3c533440	0.012890875
33	0xbc6f2ac8	-0.014597602
34	0x3dbbd7f8	0.09172052
35	0xbc393c30	-0.011305854
36	0xbd2aa0d6	-0.04165729
37	0xbc90cfb0	-0.017677158
38	0x3da4b144	0.08041623
39	0x3dce9728	0.100874245
40	0xbdc8bdeb	-0.09801849
41	0xbd853e70	-0.0650605
42	0x3c821c40	0.015882611
43	0xbcaa04ac	-0.02075418
44	0x3cb95390	0.022622854
45	0x3cec4470	0.028841227
46	0xbddeb6f4	-0.10874739
47	0xbd3fca9e	-0.04682409
48	0xbcb03244	-0.021508344
49	0xbbbf6f00	-0.0058420897
50	0x3c82ac40	0.015951276
51	0x3d65a5a0	0.056066155
52	0xbdd2c8c9	-0.10292203
53	0x3dd8d20c	0.10586938
54	0x3d74e0d8	0.05978474
55	0xbb787280	-0.0037910044
56	0x3c8fcff0	0.017555207
57	0x3cc919a8	0.024548367
58	0xbd9eec8e	-0.07759963
59	0x3dde0792	0.10841288
60	0xbae72f80	-0.0017638057
61	0x3dc0e250	0.09418166
62	0xbc3c1710	-0.011480108
63	0xbdd6d70b	-0.10490235
64	0x3da30f8a	0.07961948
65	0x3d825276	0.063633844
66	0xbd4e4f0c	-0.050368354
67	0x3c358f80	0.011081576
68	0xbc8a7e54	-0.016905941
69	0xbd2418ac	-0.04006259
70	0x3d8b5d4c	0.06804904
71	0xbda25c2c	-0.07927737
72	0xbc222f38	-0.009898953
73	0xbdc06af4	-0.093954
74	0xbdd9ad86	-0.106288
75	0xbd8c53d2	-0.06851925
76	0x3d7ae2b0	0.061251342
77	0xbd121446	-0.035663866
78	0x3cbad460	0.022806346
79	0x3db17d50	0.086664796
80	0x3d9f2184	0.077700645
81	0xbda46a3a	-0.080280736
82	0x3da4b148	0.08041626
83	0xbd694adf	-0.05695617
84	0xbdaec36c	-0.085333675
85	0x3d9bade4	0.076015264
86	0xbd395f8c	-0.045257136
87	0x3d5f7bf8	0.054561585
88	0x3d804216	0.06262605
89	0xbdd0c8e6	-0.10194568
90	0xbd606d91	-0.05479199
91	0x3d238228	0.03991905
92	0xbcbddf68	-0.023177817
93	0x3dabc106	0.08386426
94	0x3d365748	0.04451683
95	0x3dc03e2c	0.09386858
96	0x3d717d2c	0.058957264
97	0xbd8f30c3	-0.069917224
98	0xbdd0abd6	-0.10189025
99	0x3dc87ad0	0.097890496
100	0x3d87bb06	0.06627469
101	0xbd607cc8	-0.0548065
102	0x3cd0abd8	0.025472566
103	0x3c08dea0	0.008353859
104	0x3d5e068c	0.054205462
105	0xbd54bdee	-0.051938944
106	0x3dd71f98	0.10504073
107	0x3d38fba4	0.04516186
108	0xbdea963e	-0.11454438
109	0xbdc6254f	-0.09675085
110	0xbc44c6e8	-0.012010314
111	0x3d5778f8	0.0526056
112	0x3dad0fba	0.08450265
113	0xbb887ab0	-0.004165016
114	0xbde161e3	-0.110049985
115	0xbd502bb6	-0.050822936
116	0xbd35aace	-0.044352345
117	0x3da6e3a8	0.08148891
118	0xbd9d2db8	-0.07674736
119	0xbce3dd30	-0.027815431
120	0x3d55d120	0.05220139
121	0xbd684ba0	-0.056712747
122	0xbd931638	-0.07181972
123	0x3d5c8d58	0.053845733
124	0xbae62340	-0.0017558113
125	0xbca89618	-0.020579383
126	0xbdb128a2	-0.08650328
127	0x3d93e418	0.0722124
128	0xbdbf6c6e	-0.09346853
129	0x3de66e2a	0.11251481
130	0x3da24e3c	0.07925078
131	0x3a724280	0.00092414767
132	0x3c89e1a8	0.016831234
133	0xbd08dfec	-0.033416674
134	0xbce2f37c	-0.027703993
135	0x3d42580c	0.04744725
136	0xba577a80	-0.0008219853
137	0xbc133b90	-0.008986369
138	0xbdc231a4	-0.094821244
139	0xbdb14c87	-0.086571746
140	0x3d9282da	0.07153864
141	0x3deb51e2	0.11490227
142	0xbbf14100	-0.007362485
143	0xbde41e01	-0.11138535
144	0xbce19b3c	-0.027539842
145	0x3de669b2	0.112506285
146	0x3d9c37b4	0.07627812
147	0xbde80eee	-0.113309726
148	0xbd5bcc20	-0.053661466
149	0x3de643dc	0.11243412
150	0x3b0582a0	0.0020372048
151	0x3d71aa14	0.05900009
152	0xbd1d1d92	-0.03835828
153	0x3da2496a	0.07924159
154	0xbde567ae	-0.11201416
155	0xbdbe3212	-0.09286894
156	0x3be176a0	0.0068805963
157	0xbd1e080e	-0.0385819
158	0xbd9b214a	-0.07574709
159	0x3cfc73f0	0.030817002
160	0x3d938b88	0.07204348
161	0xbdc8976a	-0.09794505
162	0xbbdbc350	-0.0067066327
163	0x3d5022dc	0.050814494
164	0xbd1d4f86	-0.038405918
165	0xbdb24d9d	-0.0870621
166	0x3de17138	0.11007923
167	0xbd27a426	-0.04092803
168	0xbd91cbc6	-0.07118945
169	0xbd5e021d	-0.054201234
170	0x3d0ca87c	0.034340367
171	0x3d381e74	0.044950917
172	0xbd235826	-0.039878987
173	0xbdebae5d	-0.115078665
174	0x3c83d050	0.016090542
175	0x3c9d31a0	0.019188702
176	0x3dba823e	0.09106873
177	0xbd7340ae	-0.059387855
178	0xbdb6abe8	-0.08919507
179	0x3daaa2ee	0.083318576
180	0xbd55c1ae	-0.05218666
181	0x3d7a269c	0.061071977
182	0xbdd3b10e	-0.10336505
183	0xbddb3ec0	-0.10705328
184	0x3ce06f38	0.027396783
185	0x3da556d0	0.08073199
186	0x3c6b9880	0.014379621
187	0x3c904b58	0.017614052
188	0xbd1b4cb6	-0.037914954
189	0xbdcd4e42	-0.10024692
190	0x3d360d88	0.0444465
191	0xbdb1a8b0	-0.08674753
192	0x3dd99f80	0.10626125
193	0x3ca53c48	0.020170346
194	0xbd1da5c8	-0.03848818
195	0xbda71934	-0.08159104
196	0xbcc32ba0	-0.023824513
197	0xbdb84920	-0.089983225
198	0xbcad4b88	-0.02115418
199	0x3d860478	0.06543821
200	0x3d95fade	0.0732324
201	0x3dba7300	0.09103966
202	0xbdbcdec8	-0.0922218
203	0x3da05948	0.07829529
204	0x3b63f4c0	0.0034783334
205	0xbd4ad6c0	-0.049521208
206	0xbd2a7e9c	-0.04162465
207	0xbccb142c	-0.024789892
208	0xbd96166a	-0.07328494
209	0xbdc3ae24	-0.09554699
210	0x3d09bfe8	0.03363028
211	0xbdeb458a	-0.11487873
212	0xbd38505e	-0.04499852
213	0x3cc89a28	0.02448757
214	0x3d1fec90	0.039043963
215	0xbddb8e62	-0.10720517
216	0xbd8bde53	-0.06829514
217	0xbdd36fee	-0.10324083
218	0x3d8b2a5c	0.06795189
219	0xbde4a616	-0.11164491
220	0xbc572688	-0.013131745
221	0xbdabf326	-0.08395986
222	0xbc218d58	-0.009860359
223	0x3d0d7d98	0.034543604
224	0xbb155040	-0.0022783428
225	0x3c997e20	0.018736899
226	0xbc6c78c8	-0.014433093
227	0xbd9c18fe	-0.076219544
228	0x3d5a3530	0.05327338
229	0xbcf99a4c	-0.030469082
230	0x3d9abd82	0.07555677
231	0xbc2c3dc0	-0.010512769
232	0x3d949f6e	0.07256971
233	0xbbf27460	-0.007399127
234	0xbde83ee3	-0.1134012
235	0x3c6324f0	0.013863787
236	0x3de166cc	0.11005935
237	0x3d17e4c4	0.037083402
238	0x3cddb210	0.027062446
239	0xbcaa30d8	-0.020775244
240	0xbd932368	-0.071844876
241	0x3dc36d5e	0.095423445
242	0x3caa7b00	0.020810604
243	0x3da867f6	0.08222954
244	0xbd88946b	-0.066689335
245	0xbc5b02e0	-0.013367385
246	0xbdb4d7ba	-0.08830209
247	0x3d90588c	0.07048139
248	0x3de96b9c	0.11397478
249	0xbda2093b	-0.07911917
250	0xbdafd0f6	-0.08584778
251	0xbc7e9678	-0.015538804
252	0x3d3b39e8	0.04570952
253	0xbd99d8b1	-0.07512034
254	0xbdc98e38	-0.09841579
255	0xbdda0bc6	-0.10646777

conv1.bias f4 [6]
0	0xbdbd72c7	-0.09250408
1	0x3d3661a4	0.04452671
2	0x3da145e8	0.07874662
3	0xbd266d84	-0.040631786
4	0xbc78fe68	-0.015197374
5	0xbda66dc0	-0.08126402

conv2.weight f4 [16, 6, 5, 5]
0	0x3d82c184	0.063845664
1	0xbd920a92	-0.071309224
2	0xbd839e68	-0.06426698
3	0x3cf68be0	0.030095994
4	0x3ce9d15c	0.028542213
5	0xbd6a6f86	-0.057235263
6	0x3d97651e	0.073923334
7	0xbd890139	-0.06689686
8	0xbd0ea2e7	-0.034823325
9	0xbd1e9287	-0.038713958
10	0xbd8a304f	-0.067474954
11	0xbd2e1c39	-0.042507384
12	0xbd17f454	-0.037098244
13	0x3b5f3c80	0.003406316
14	0xba598880	-0.0008298233
15	0x3c7fe910	0.015619531
16	0x3c098388	0.008393176
17	0x3c99fbb4	0.01879678
18	0x3da4def2	0.08050336
19	0xbd282648	-0.041052133
20	0x3c8f5dd4	0.017500795
21	0xbcb13d4a	-0.02163567
22	0xbd8d0e68	-0.068875134
23	0xbd923da8	-0.07140666
24	0x3c96df60	0.01841706
25	0xbd45cb02	-0.048289306
26	0xbd8d6e8b	-0.0690585
27	0xbd8abe6e	-0.06774603
28	0x3d326c58	0.043560356
29	0x3c852c68	0.016256526
30	0x3d2b2cc2	0.04179073
31	0xbcbf8dee	-0.023383107
32	0x3d81dd4e	0.06341039
33	0x3cba5c48	0.022749081
34	0x3a926200	0.0011168122
35	0xbd459258	-0.048235267
36	0xbd8a903b	-0.06765791
37	0xbcbd40ba	-0.023102153
38	0x3cb55658	0.022135898
39	0x3c5bfa98	0.013426445
40	0xbd515770	-0.051108778
41	0x3cd71bbc	0.026258342
42	0x3d0ca2e8	0.034335047
43	0x3d60674c	0.05478601
44	0x3d428ba0	0.047496438
45	0xbc953d0c	-0.018217586
46	0xbd5150a7	-0.051102307
47	0x3d94ea98	0.07271308
48	0x3c6dfa00	0.014524937
49	0x3bb32340	0.0054668486
50	0x3d8f94e2	0.07010819
51	0x3d59398c	0.053033397
52	0x3b731520	0.003709145
53	0x3d4e465c	0.05036007
54	0x3d946302	0.07245447
55	0x3c37f988	0.0112289265
56	0xbd7924d1	-0.060826126
57	0xbd6abc29	-0.05730835
58	0xbd4d58cc	-0.05013351
59	0xbd8e474d	-0.06947193
60	0x3d8e3328	0.06943351
61	0x3d475c90	0.04867226
62	0x3d94b722	0.07261492
63	0x3cebfd48	0.028807297
64	0xbd510466	-0.051029585
65	0x3954fa00	0.00020311028
66	0x3ac01440	0.0014654472
67	0x3cff2d48	0.031149521
68	0xbcd038a2	-0.02541763
69	0x3ceef95c	0.029171638
70	0xbd9fda3c	-0.07805297
71	0x3d93c670	0.07215583
72	0xbd0c6ec1	-0.03428531
73	0x3d9754fc	0.07389256
74	0xbd69386a	-0.056938566
75	0xbd40a77a	-0.047034718
76	0x3c9da29c	0.019242577
77	0xbc9e13ec	-0.019296609
78	0xbbe8d980	-0.007106006
79	0xbd59f5dc	-0.053212985
80	0x3a312380	0.0006757304
81	0xbd87abff	-0.066246025
82	0x3cf966f8	0.030444607
83	0xbd14a2b9	-0.036287997
84	0xbd0103cf	-0.031497773
85	0x3d9c48fe	0.0763111
86	0x3d9f3c60	0.077751875
87	0x3d2b160e	0.04176908
88	0xbcbf0a26	-0.023320269
89	0xbc9dcfd2	-0.019264136
90	0x3b28f480	0.00257805
91	0xbd8d4774	-0.06898394
92	0x3c7aad50	0.01530011
93	0xbccf7f0c	-0.025329135
94	0x3c6e1f10	0.014533773
95	0x3cc6b908	0.024258152
96	0xbd0b61fe	-0.034029
97	0xbda07b2a	-0.07835992
98	0x3d4550d4	0.048172787
99	0xbd5c6fdc	-0.053817615
100	0xbd66d15c	-0.056352004
101	0x3d9484b0	0.07251871
102	0xbcd07596	-0.025446694
103	0xbcae1372	-0.021249507
104	0xbcbc3272	-0.022973273
105	0xbd3f3db0	-0.04668969
106	0x3d4c6e50	0.04990989
107	0x3c954224	0.018220015
108	0xbcc5476c	-0.024081908
109	0x3cd0c148	0.025482789
110	0xbd810804	-0.06300357
111	0x3cb9eabc	0.022694938
112	0x3c97f224	0.018548079
113	0xbd98d592	-0.0746261
114	0xbd905314	-0.07047096
115	0xbd3f14d5	-0.046650726
116	0x3da45e86	0.080258414
117	0x3d4b0e20	0.049574018
118	0x3d941be0	0.07231879
119	0x3cf346cc	0.029696845
120	0xbd9eaa50	-0.07747328
121	0x3d46f54c	0.048573777
122	0xbc192fa0	-0.009349734
123	0xbd2f212a	-0.042756237
124	0xbd3688b7	-0.044563975
125	0x3d98a244	0.07452825
126	0x3cf143c8	0.029451266
127	0xbcfcea1a	-0.030873347
128	0xbd71dcf6	-0.059048615
129	0x3d6ca04c	0.05777006
130	0xbd49d9c9	-0.04927996
131	0xbcc0e734	-0.023547746
132	0xbc8f5d90	-0.017500669
133	0x3caeda88	0.021344438
134	0x3d5e4ce0	0.054272532
135	0xbd3a2973	-0.045449685
136	0x3af0fd80	0.0018386096
137	0x3da24310	0.079229474
138	0x3cf23a58	0.029568836
139	0x3d58dac8	0.05294302
140	0xbb8131f0	-0.0039427206
141	0xbbaf99c0	-0.0053589046
142	0x3c3687e8	0.011140801
143	0xbcffa472	-0.031206343
144	0x3d98dcbe	0.07463978
145	0x3cd1205c	0.025528125
146	0x3d55d448	0.0522044
147	0x3cd65130	0.02616176
148	0xbd95d84b	-0.07316645
149	0xbd4fc1c3	-0.050721895
150	0x3c9f6738	0.019458398
151	0xbd4d70cb	-0.050156396
152	0x3d31c904	0.043404594
153	0xbd286105	-0.04110815
154	0xbd847a29	-0.06468613
155	0x3c238c28	0.009982146
156	0xbd8e4877	-0.06947415
157	0x3cb4349c	0.021997742
158	0xbc6f8430	-0.014618918
159	0x3cdf0610	0.02722457
160	0xbd9f3c35	-0.077751555
161	0x3d424b8c	0.04743533
162	0x3ca0b818	0.019619033
163	0x3b36f580	0.0027917325
164	0xbd46770d	-0.04845338
165	0x3d0596de	0.03261458
166	0xbd1f8746	-0.038947366
167	0xbca0a368	-0.019609168
168	0xbd34a044	-0.044098154
169	0xbd9dec76	-0.07711117
170	0x3d97dae0	0.07414794
171	0x3d742330	0.05960387
172	0xbd5cfe24	-0.053953305
173	0x3d8a2782	0.06745817
174	0xbd1e9a41	-0.038721327
175	0xbc4c8a88	-0.0124842
176	0x3a3a1200	0.0007098019
177	0x3d984af8	0.07436174
178	0x3d4b9ac0	0.049708128
179	0xbd8c5e77	-0.06853955
180	0xbd650d3e	-0.05592083
181	0xbd47cfaa	-0.04878203
182	0x3d58c3cc	0.0529211
183	0x3d86d422	0.0658343
184	0x3c5bd900	0.013418436
185	0xbd68f4fe	-0.056874268
186	0x3d6ba684	0.05753185
187	0x3d47d144	0.048783556
188	0xbc216698	-0.00985112
189	0x3cccaad0	0.024983793
190	0x3d05123a	0.032488085
191	0x3d41b468	0.04729119
192	0xbb0b2200	-0.0021229982
193	0x3c412178	0.011787765
194	0xbd5a310e	-0.05326944
195	0xbd8f4d7d	-0.069972016
196	0xbd23c808	-0.039985687
197	0x3cdbc0ac	0.026825272
198	0x3cb6cbc0	0.022313952
199	0x3d4a29e8	0.04935637
200	0x38cac000	9.6678734e-05
201	0x3d871818	0.065963924
202	0xbcaa05fc	-0.020754807
203	0x3d24f6b2	0.04027433
204	0xbd85cdbc	-0.06533381
205	0xbd45ee45	-0.048322935
206	0x3d013090	0.031540453
207	0xbd5579a1	-0.052117947
208	0xbd7fc81a	-0.06244669
209	0x3cb31ec0	0.021865249
210	0xbbc1cc90	-0.0059142783
211	0x3d27b4b8	0.04094383
212	0xbd87afe4	-0.06625345
213	0x3c9536c4	0.01821459
214	0xbc48add8	-0.012248479
215	0x3d9aa900	0.075517654
216	0x3d8f3c96	0.06993978
217	0x3d47c39c	0.048770532
218	0xbd9ac96e	-0.07557951
219	0x3d475774	0.048667386
220	0x3cd4b3f8	0.025964722
221	0x3d1d5864	0.038414374
222	0xbc237338	-0.009976201
223	0xbc6d47e8	-0.014482476
224	0xbc0f8170	-0.008758888
225	0xbc326620	-0.010888606
226	0x3d994924	0.074846536
227	0x3cc5a338	0.02412568
228	0x3a2fca80	0.0006705895
229	0xbce25432	-0.027628038
230	0xbcf16804	-0.029468544
231	0xbb394ac0	-0.0028273314
232	0xbd619bdc	-0.05508028
233	0xbcc8e244	-0.024521954
234	0x3c319470	0.010838613
235	0xbc614c58	-0.013751112
236	0x3cc6ab0c	0.024251483
237	0xbc965dc8	-0.018355265
238	0x3c827c58	0.015928432
239	0xbd758dde	-0.05994975
240	0x3d9b2aa8	0.075764954
241	0xbd9dbb0f	-0.07701694
242	0xbd38a1be	-0.045076124
243	0xbc40d6d0	-0.011769965
244	0xbd3ebd85	-0.04656746
245	0x3d874b9e	0.0660622
246	0x3c171c18	0.009223007
247	0x3d3b4ad0	0.045725644
248	0x3c9818e4	0.018566556
249	0x3da3e9ec	0.080036014
250	0xbada6340	-0.0016661659
251	0x3d235c8c	0.03988318
252	0x3d875efc	0.06609914
253	0x3c4ef0e0	0.012630671
254	0xbc582568	-0.013192512
255	0xbd44e4d1	-0.04806978

conv2.bias f4 [16]
0	0xbd2298c6	-0.039696477
1	0x3d1d73f2	0.038440652
2	0xbc677080	-0.014125943
3	0xbcb26926	-0.021778654
4	0xbcf170ac	-0.029472671
5	0xbcb12ea2	-0.021628682
6	0xbda669c2	-0.081256405
7	0x3d84e19c	0.06488344
8	0x3d727360	0.05919206
9	0xbd83d2ec	-0.064367145
10	0xbd5d7588	-0.054067165
11	0xbd40ef76	-0.047103368
12	0x3d08f63c	0.033437952
13	0x3cdd2fdc	0.02700036
14	0xbbac3ec0	-0.005256504
15	0x3c6710f8	0.014103167

fc1.weight f4 [120, 400]
0	0x3d0f6cd1	0.035015885
1	0xbcaaa19d	-0.020829016
2	0xbc9617c6	-0.018321883
3	0x3d4497ed	0.04799645
4	0x3b1e7580	0.0024178922
5	0x3c1a4180	0.0094150305
6	0x3d09ec33	0.033672523
7	0xbd421938	-0.04738733
8	0x3d08db89	0.03341249
9	0xbcc836a3	-0.024440115
10	0x3ccdd456	0.025125664
11	0xbd0a63c8	-0.033786565
12	0x3d21fd8b	0.039548438
13	0xbd0dd64d	-0.0346282
14	0xbc81a4fa	-0.015825737
15	0x3cb4afb6	0.022056442
16	0xbd2cb23d	-0.04216217
17	0x3d19a4e9	0.037510786
18	0x3cb9bfba	0.02267443
19	0xbbc11358	-0.0058921985
20	0x3ac21fc0	0.0014810488
21	0xbd04748d	-0.032337714
22	0xbcc7382d	-0.024318779
23	0xbc71a338	-0.014748387
24	0xbc7ca374	-0.01541983
25	0xbd0e47d2	-0.034736462
26	0x3c0bcdf8	0.0085329935
27	0xbd00f4ce	-0.031483464
28	0x3d391a47	0.045191076
29	0xbd2aeab5	-0.04172774
30	0x3d1f998b	0.03896479
31	0xbca7d0d0	-0.020485312
32	0xbd47cb80	-0.048778057
33	0xbbe56058	-0.0070000105
34	0xbc86bf14	-0.016448535
35	0xbc697500	-0.014249086
36	0x3cbd80ae	0.023132648
37	0xbcb5bde0	-0.022185266
38	0x3d0213d9	0.03175721
39	0xbd3cd3aa	-0.046100296
40	0xbcd30aed	-0.025762046
41	0xbd2d9fc0	-0.042388678
42	0x3c3254c8	0.010884471
43	0x3d1b17db	0.037864547
44	0xbd3cbfb8	-0.046081275
45	0xbcb87f63	-0.02252168
46	0x3cd91d5e	0.026503261
47	0xbd406c28	-0.046978146
48	0x3cf82f4e	0.030295994
49	0x3ccd9bba	0.02509867
50	0x3d4c98f7	0.049950566
51	0xbd2e21dd	-0.042512763
52	0x3a01c680	0.0004950538
53	0x3c4c0434	0.012452174
54	0xba9cf2c0	-0.0011974201
55	0x3ca64482	0.020296339
56	0x3d2ba889	0.041908775
57	0x3cbb4b72	0.022863124
58	0xbcb1a97d	-0.021687264
59	0x3c6dc194	0.014511485
60	0xbd1336ab	-0.035940807
61	0xbc65d900	-0.014028788
62	0x3d3204d1	0.043461625
63	0xbd4cb7c8	-0.049979955
64	0xbd35bbe7	-0.04436865
65	0x3c710e44	0.014712874
66	0xbd2a8828	-0.041633755
67	0xb9404000	-0.00018334389
68	0xbbfa0828	-0.007630367
69	0xbd058c7d	-0.032604683
70	0x3cfd003a	0.030883897
71	0xbd164b7e	-0.03669309
72	0xbc4d2a80	-0.01252234
73	0x3cf0df06	0.02940322
74	0x3d2488a7	0.040169384
75	0x3cbdab52	0.023152981
76	0xbd4b6915	-0.04966076
77	0xbd4a05d2	-0.049321957
78	0x3bc4a128	0.0060006566
79	0x3ca981de	0.020691808
80	0xbd30020a	-0.042970695
81	0x3d008e57	0.031385746
82	0xbd1c8638	-0.03821394
83	0xbd26f105	-0.040757198
84	0x3c59697c	0.013269778
85	0xbd3075f8	-0.043081254
86	0x3cc45282	0.023965124
87	0xbd29b05d	-0.04142796
88	0xbd095298	-0.033526033
89	0x3c2ba0b4	0.010475326
90	0xbcf6ff70	-0.030151099
91	0xbc405c08	-0.011740692
92	0x3b2e7b80	0.0026623905
93	0x3bd8bd98	0.006614398
94	0xbbf7bbc0	-0.0075602233
95	0xbb7c3080	-0.0038481057
96	0xbccbb37d	-0.02486586
97	0xbba6fdd0	-0.005096175
98	0x3cd2d43a	0.025735963
99	0x3c7cf254	0.015438635
100	0xbd4b2d20	-0.04960358
101	0xbccb8660	-0.024844348
102	0xbc4c35a0	-0.012463957
103	0x3c027b14	0.007963914
104	0x3a2d9480	0.00066215545
105	0x3c6f823c	0.014618453
106	0xbc74462c	-0.014909308
107	0x3c844fca	0.016151328
108	0xbcc5d45a	-0.024149109
109	0xbd1ccc06	-0.03828051
110	0x3c3e7220	0.011623889
111	0xbd2dd2c5	-0.042437334
112	0xbcc79d53	-0.02436701
113	0x3cd52b02	0.026021484
114	0x3cb5f122	0.022209708
115	0x3d206287	0.039156463
116	0x3d00ebd9	0.03147492
117	0x3cd32866	0.0257761
118	0xbcb38c6d	-0.021917546
119	0xbd1f3a7e	-0.038874142
120	0x3bccb158	0.006246727
121	0x3d343fa9	0.044006024
122	0xbd27d5c8	-0.040975362
123	0x3d3a1009	0.04542545
124	0x3bf665d8	0.007519465
125	0xbcd28ff3	-0.025703406
126	0x3a66e480	0.0008807853
127	0x3ca8e822	0.020618502
128	0xbcb10560	-0.021609008
129	0x3d3c77cf	0.046012696
130	0xbc8abad0	-0.016934782
131	0x3c130834	0.008974124
132	0x3d08d829	0.03340927
133	0x3d417727	0.047232773
134	0xbc49eb58	-0.012324177
135	0x3d3756b3	0.044760417
136	0xbb904d68	-0.004403759
137	0xbc213774	-0.009839881
138	0xbcf5fd2a	-0.030027945
139	0x3ca75572	0.020426486
140	0xbcd4c0cd	-0.02597084
141	0xbcdbdb10	-0.026837856
142	0x3cd849ee	0.02640244
143	0x3cb4aaf6	0.022054177
144	0x3bd627a8	0.006535489
145	0x3cd1723a	0.025567163
146	0x3d314395	0.043277342
147	0xbcc7bdad	-0.024382437
148	0xbcef414d	-0.029205943
149	0xbd22859e	-0.03967821
150	0x3c652ac4	0.013987247
151	0xbd34f015	-0.044174273
152	0x3d0928db	0.03348623
153	0xbd2dcb60	-0.04243028
154	0x3c39b00c	0.011333477
155	0x3ccf804e	0.025329735
156	0x3bcb45c0	0.006203383
157	0xbc7e5908	-0.015524156
158	0x3cca80e2	0.02471966
159	0xbd356f37	-0.044295516
160	0x3d17f2e3	0.03709687
161	0xbbc9c100	-0.0061570406
162	0xbd151758	-0.036399215
163	0xbc90b450	-0.017664105
164	0xbd4167f8	-0.047218293
165	0x3cddb486	0.02706362
166	0xbca28fe0	-0.019843996
167	0xbb619fd0	-0.003442753
168	0xbca8cc93	-0.020605361
169	0xbd0db62a	-0.034597553
170	0x3c801e6e	0.01563951
171	0x3d1d2f5f	0.038375255
172	0xbd043946	-0.032281183
173	0x3c5a7f14	0.013335962
174	0x3c5b3f7c	0.013381835
175	0x3d1e5c77	0.0386624
176	0x3cc643ce	0.024202254
177	0x3d1fa379	0.03897426
178	0x3c6911bc	0.01422542
179	0x3cb4265a	0.021990944
180	0xbb99e0f0	-0.004696004
181	0xbced605d	-0.028976614
182	0x3ce4808a	0.027893323
183	0x3c42c5d8	0.01188799
184	0x3bab20b0	0.0052224025
185	0xbcaef0f7	-0.021355135
186	0x3a431400	0.000744164
187	0xbd1ffbc0	-0.039058447
188	0x3d301333	0.04298706
189	0x39ddf680	0.00042336062
190	0xbd4c1c73	-0.04983182
191	0x3b4f1130	0.0031595938
192	0x3cd57b66	0.026059818
193	0x3c68ec9c	0.014216568
194	0x3c0f0258	0.008728586
195	0x3b2606e0	0.0025333688
196	0xbc54820c	-0.012970459
197	0xbb28dcd0	-0.002576638
198	0x3d499a4f	0.049219426
199	0xbb8247e8	-0.003975857
200	0xbd46aadd	-0.04850279
201	0xbd2b5f3a	-0.041838862
202	0xbd1b621a	-0.037935354
203	0x3c661324	0.014042649
204	0x3b94c728	0.004540343
205	0x3d16da8d	0.03682952
206	0x3d1bd107	0.03804114
207	0x3cea668a	0.028613348
208	0x3ca39782	0.019969705
209	0xbc4b5734	-0.012410928
210	0xbd18f630	-0.037344158
211	0x3b71f350	0.0036918707
212	0xbcf18fe0	-0.02948755
213	0x3d2a0053	0.041504215
214	0xbb3a9c60	-0.0028474554
215	0x3d0a0765	0.03369846
216	0xbd262426	-0.040561818
217	0xbcb0f83a	-0.021602739
218	0x3d4009c9	0.04688433
219	0x3d06e1d3	0.032930207
220	0xbc16cd34	-0.009204198
221	0x3cf6b01e	0.030113276
222	0xbcc94dc0	-0.024573207
223	0xbc258ec0	-0.010104835
224	0x3ce14002	0.027496342
225	0x3cb2407e	0.021759268
226	0xbc5818a8	-0.013189472
227	0xbce9a0a7	-0.028518988
228	0xbd3d7f80	-0.04626417
229	0xbb134450	-0.0022471137
230	0x3aac0400	0.0013123751
231	0x3d2659d9	0.04061303
232	0xbceef350	-0.029168755
233	0xbc30f3c0	-0.010800302
234	0xbcee37fa	-0.029079426
235	0x3cddea9a	0.027089406
236	0x3cd67c82	0.026182417
237	0xbd1d6cde	-0.038433902
238	0xbc427f14	-0.011871118
239	0xbce9b643	-0.028529292
240	0x3cf2d0be	0.029640552
241	0xbd2442cd	-0.04010277
242	0xbcf7cbed	-0.030248607
243	0x3b9f83d0	0.004868008
244	0x3cffb702	0.031215195
245	0xbad6ccc0	-0.0016387925
246	0x3d36fc41	0.04467416
247	0x3c2677ec	0.010160428
248	0x3bffae90	0.007802792
249	0x3d2bc35b	0.041934352
250	0xbc9d05ca	-0.0191678
251	0xbd1428c8	-0.036171705
252	0xbcbeeded	-0.023306811
253	0x3c7c7afc	0.015410181
254	0x3cfec672	0.031100485
255	0xbccbd480	-0.024881601

fc1.bias f4 [120]
0	0xbd3d0b7f	-0.04615354
1	0x3cd7f792	0.026363168
2	0x3c37a7f8	0.01120948
3	0xbc47e1d4	-0.012199838
4	0x3bc3b0d8	0.005972009
5	0x3d195b85	0.037440795
6	0xbbe301e8	-0.0069277175
7	0x3c0f7574	0.00875603
8	0xbc87ace0	-0.016561925
9	0xbc46f128	-0.012142457
10	0x3ce657b2	0.028117988
11	0xbc6812e0	-0.014164656
12	0x3d180fe9	0.037124548
13	0xbd08798e	-0.03331905
14	0x3d4384d1	0.047734085
15	0x3c9c0852	0.019046936
16	0xbd079676	-0.033102475
17	0xbca9339d	-0.020654494
18	0xbd196b1e	-0.03745567
19	0xbd1e8b62	-0.038707145
20	0x3c5c32ac	0.0134398155
21	0xbd4b0c90	-0.049572527
22	0xbce16137	-0.027512176
23	0x3c423448	0.011853285
24	0x3ce102ee	0.027467217
25	0x3c108838	0.00882154
26	0xbd1f5330	-0.038897693
27	0x3ce4a072	0.027908538
28	0xbca4e0a0	-0.02012664
29	0x3c02c52c	0.00798158
30	0xbd0d18cb	-0.034447473
31	0x3cf2b242	0.029626016
32	0x3ceb638a	0.028733987
33	0xbccfa447	-0.025346888
34	0x3c30ff34	0.010803033
35	0x3d287579	0.041127656
36	0xb8fd8c00	-0.00012090057
37	0x3d1bb39b	0.038013082
38	0xbcfeef33	-0.031119918
39	0x3bc71768	0.0060757883
40	0x3cef5ae2	0.029218141
41	0xbc9db73d	-0.019252414
42	0xbd248f58	-0.040175766
43	0xbc3db188	-0.011577971
44	0x3c4509ac	0.012026232
45	0x3d366f1b	0.044539552
46	0x3d2073bd	0.039172877
47	0x3ce207de	0.027591642
48	0xbc5a0894	-0.013307709
49	0xbc3d0558	-0.011536919
50	0x3cfbff9a	0.030761529
51	0xbd08fa04	-0.03344156
52	0x3ced7de6	0.028990697
53	0xbbf59590	-0.007494636
54	0x3c9042c6	0.017609965
55	0x3c120fc8	0.008914895
56	0xbc3aab78	-0.01139342
57	0xbc2af540	-0.010434449
58	0xbcfb7137	-0.030693633
59	0xbc365bf8	-0.0111303255
60	0xbb4b0600	-0.0030978918
61	0x3c70bafc	0.014693018
62	0x3bbcb328	0.005758662
63	0x3c47cf58	0.012195431
64	0xbc694de0	-0.014239758
65	0x3a88aac0	0.0010426864
66	0x3cc5ec5e	0.02416056
67	0xbd35df70	-0.04440254
68	0xbc596718	-0.013269208
69	0x3d0eacbf	0.034832712
70	0xbc2f526c	-0.010700803
71	0xbd27be90	-0.04095322
72	0x3cb5f562	0.022211734
73	0x3b844570	0.004036598
74	0xbabe93a0	-0.0014539845
75	0xbc1ccf54	-0.009570915
76	0xbce98f63	-0.028510755
77	0xbc8b578c	-0.017009519
78	0xbcb22a27	-0.021748615
79	0xbcdeeb4d	-0.02721181
80	0x3c88db82	0.016706232
81	0xbd1faec6	-0.038985036
82	0xbd103448	-0.03520611
83	0xbd27bc9e	-0.040951364
84	0x3d25ed7b	0.040509682
85	0x3d2d259d	0.0422722
86	0x3bf2ebc0	0.0074133575
87	0xbc8a655a	-0.016894031
88	0x3c99333e	0.018701192
89	0xbbe32410	-0.006931789
90	0x3ce0ffb2	0.027465675
91	0x3c85a56e	0.016314235
92	0x3d4ba943	0.049721967
93	0xbd2a6052	-0.041595764
94	0x3c8f2e02	0.017477993
95	0xbd31eb2f	-0.04343718
96	0xbcb748b3	-0.022373533
97	0xbc75d3f4	-0.015004147
98	0xbd11b900	-0.03557682
99	0x3d1838e9	0.03716365
100	0xbc09110c	-0.008365881
101	0x3b9b0158	0.004730385
102	0xbd113720	-0.035452962
103	0x3c956cb6	0.018240314
104	0xbc18bf0c	-0.009322893
105	0xbd153fe0	-0.03643787
106	0xbcb0ef00	-0.02159834
107	0x3a665e00	0.0008787811
108	0xbba5fa70	-0.005065255
109	0xbd2c920d	-0.042131472
110	0xbd46a495	-0.0484968
111	0x3c466098	0.012107991
112	0xbc276de0	-0.010219067
113	0x3c9e3d42	0.01931632
114	0xbc675e0c	-0.014121544
115	0x3d3865bf	0.045018908
116	0xbcc5bd70	-0.024138182
117	0x3b1f6050	0.0024318881
118	0x3d486785	0.04892685
119	0xbd120675	-0.03565069

fc2.weight f4 [84, 120]
0	0x3cdd512c	0.027016245
1	0xbd78f972	-0.060784765
2	0x3d2ac080	0.04168749
3	0x3d80a7a4	0.06281975
4	0x3db5af64	0.08871344
5	0x3dbac346	0.09119277
6	0x3d9e270e	0.07722293
7	0xbd203d65	-0.03912105
8	0xbb8a8d80	-0.004228294
9	0x3d096836	0.03354665
10	0xbd37000e	-0.044677787
11	0xbbd383f0	-0.006454937
12	0xbd59f800	-0.053215027
13	0xbdb348d5	-0.08754126
14	0xbd9966d7	-0.07490318
15	0x3d83793a	0.064196065
16	0xbd5e3bab	-0.054256123
17	0x3d4f87dc	0.050666675
18	0x3d3a6c90	0.04551369
19	0xbd42165b	-0.0473846
20	0xbcc06084	-0.023483522
21	0xbdb07bda	-0.08617373
22	0xbdb19e01	-0.08672715
23	0xbc10c5f8	-0.008836262
24	0xbd82bb4a	-0.06383379
25	0x3cb38760	0.021915138
26	0xbced83f0	-0.028993577
27	0x3d0ffe08	0.035154372
28	0xbd20bab9	-0.039240573
29	0xbd65264b	-0.055944722
30	0xbc2b02d0	-0.010437682
31	0x3d6d4dc4	0.05793549
32	0xbd04465d	-0.032293666
33	0xbd42b783	-0.04753829
34	0xbda389b6	-0.07985251
35	0x3d3bb19c	0.04582368
36	0xbd24eab7	-0.040262904
37	0x3cd5859c	0.026064686
38	0x3d998e3c	0.07497832
39	0x3b5d5900	0.0033774972
40	0xbda8e380	-0.08246517
41	0x3d55f488	0.052235156
42	0x3cc6e344	0.02427829
43	0xbd2a0e8d	-0.041517783
44	0x3d8efb90	0.069815755
45	0x3d243b00	0.04009533
46	0xbda708a9	-0.08155949
47	0x3d8a5912	0.0675527
48	0xbd8cdf55	-0.06878535
49	0x3c443d70	0.0119775385
50	0x3d66e548	0.056371003
51	0xbca7661c	-0.020434432
52	0x3ba81430	0.0051293597
53	0x3d51aca0	0.05119002
54	0x3acb3f00	0.0015506446
55	0x3d5c85e8	0.05383864
56	0xbd491375	-0.04909082
57	0xbca62048	-0.020279065
58	0xbdb1aefa	-0.08675952
59	0xbd6126ce	-0.054968648
60	0x3c03a990	0.008036032
61	0xbdaf1a84	-0.08549979
62	0x3c3a4460	0.011368841
63	0x3d99c524	0.07508305
64	0x3d51b830	0.051201046
65	0xbda21474	-0.079140574
66	0x3af9aec0	0.0019049272
67	0xbd0ccfdc	-0.034377918
68	0x3a67e980	0.0008846745
69	0x3c0b08c8	0.00848598
70	0xbd41adb7	-0.047284808
71	0xbca8b39c	-0.020593457
72	0xbd0af24a	-0.03392247
73	0x3d2a260c	0.04154019
74	0xbd047159	-0.03233466
75	0xbcda5a6c	-0.026654445
76	0x3db51682	0.08842184
77	0xbd8950ab	-0.06704839
78	0x3d80b65a	0.06284781
79	0x3cdefb00	0.027219296
80	0x3daaf3d0	0.08347285
81	0xbdac67a0	-0.084182024
82	0x3d87c7be	0.06629895
83	0x3cf30d78	0.029669508
84	0x3db89bce	0.090140924
85	0xbd3bec92	-0.045879908
86	0xbdade1f7	-0.08490365
87	0xbd0afdb3	-0.033933353
88	0x3d555b70	0.052089155
89	0xbd841fdc	-0.06451389
90	0x3c407c18	0.011748336
91	0xbcd8b788	-0.026454702
92	0x3d21acac	0.039471313
93	0xbcfc0b22	-0.030767027
94	0x3c9ea694	0.01936654
95	0x3c8738fc	0.016506664
96	0xbd9c5340	-0.07633066
97	0x3d2ec3ac	0.042667076
98	0x3d3009e8	0.042978197
99	0xbd593312	-0.05302722
100	0x3d8224fa	0.06354709
101	0xbba61be0	-0.005069241
102	0x3c458d38	0.012057595
103	0xbd99286f	-0.07478415
104	0xbcd2d658	-0.025736973
105	0x3d726d60	0.05918634
106	0xbd9126da	-0.070874885
107	0x3dada13e	0.0847802
108	0xbce11ec0	-0.027480483
109	0xbcd791b8	-0.026314601
110	0x3c8edae8	0.017438367
111	0x3d8f8368	0.07007486
112	0x3d44dd10	0.048062384
113	0x3d81948c	0.06327161
114	0x3d88c510	0.06678212
115	0xbbe304c0	-0.0069280565
116	0xbd697187	-0.056993034
117	0x3d859114	0.06521812
118	0xbd84caed	-0.064840175
119	0xbd106926	-0.035256527
120	0x3bd9ecf0	0.0066505596
121	0xbcd51b20	-0.02601391
122	0xbb93feb0	-0.004516445
123	0xbc79b470	-0.015240774
124	0x3d428940	0.047494173
125	0xbc4bdcd8	-0.01244279
126	0xbd9a674a	-0.07539232
127	0x3d7cbccc	0.06170349
128	0x3d8791f0	0.06619632
129	0xbd3a611b	-0.045502763
130	0xbda02ef3	-0.07821455
131	0xbd8be114	-0.068300396
132	0x3d275b1c	0.040858373
133	0x3c538ca0	0.012911946
134	0x3dba6dd0	0.09102976
135	0xbd72c42c	-0.059269115
136	0x3d8c4ac2	0.068501964
137	0xbd4a2f56	-0.04936155
138	0xbcddd86c	-0.027080737
139	0x3c1ff9a8	0.0097641125
140	0x3d2bffcc	0.041991994
141	0xbd8e7998	-0.06956786
142	0x3b73a960	0.0037179813
143	0xbd940bf0	-0.072288394
144	0xbbb29810	-0.005450256
145	0x3d9536ae	0.0728582
146	0x3c0060f0	0.007835612
147	0xbda4a873	-0.08039942
148	0xbce11290	-0.027474672
149	0x3d063160	0.03276193
150	0xbd9f66b0	-0.07783258
151	0x3cd99464	0.026560016
152	0xbd020ada	-0.03174863
153	0x3d177df4	0.036985353
154	0x3db15372	0.08658494
155	0xbcdc3564	-0.026880927
156	0x3d939fec	0.07208237
157	0x3d7dac68	0.061931998
158	0x3ba71fe0	0.0051002353
159	0x3b51dd80	0.0032022893
160	0xbc964124	-0.018341608
161	0xbd768662	-0.06018675
162	0xbdb3c259	-0.08777303
163	0x3ce0ba2c	0.027432524
164	0xbcd72bcc	-0.026266001
165	0xbd7b9822	-0.061424382
166	0xbd730ca4	-0.059338227
167	0x3c14f420	0.009091407
168	0xbd899981	-0.06718732
169	0xbcee6a52	-0.029103432
170	0xbc680728	-0.014161862
171	0xbcef4742	-0.029208783
172	0xbcb095c8	-0.021555796
173	0xbb3d8ac0	-0.0028921813
174	0x3d5c3084	0.053757206
175	0x3cc0b63c	0.023524396
176	0xbcd75b44	-0.026288636
177	0x3d10ee78	0.03538367
178	0x3db0da68	0.08635408
179	0xbda6745e	-0.08127664
180	0xbd0dc79c	-0.03461419
181	0xbc76bad0	-0.015059188
182	0xbd359144	-0.04432799
183	0xbac8de80	-0.0015325099
184	0x3be091a0	0.0068532974
185	0xbca0964c	-0.019602917
186	0xbca7b474	-0.020471789
187	0x3c86a7f8	0.016437516
188	0x3d0b5448	0.034015924
189	0xbd92a3f3	-0.07160177
190	0x3bdc8ca0	0.006730631
191	0x3ce17a68	0.027524188
192	0x3ab12300	0.0013514459
193	0xbd9e58c6	-0.07731776
194	0x3d6367d8	0.055518955
195	0x3d44d2cc	0.048052594
196	0x3daa90d0	0.08328402
197	0xbcd86a3c	-0.026417844
198	0x3d81c00a	0.06335457
199	0xbd90e864	-0.07075575
200	0x3d31ceb4	0.043410018
201	0xbd2b1076	-0.041763745
202	0x3da540dc	0.080690116
203	0x3cdb6664	0.026782222
204	0x3da56d82	0.080775276
205	0xbd60e4c8	-0.054905683
206	0x3cb46460	0.022020519
207	0xbd22badd	-0.039728988
208	0x3db2e06c	0.08734211
209	0x3b142600	0.0022605658
210	0xbdba6abb	-0.091023885
211	0xbda14f14	-0.07876411
212	0xbb11cc00	-0.0022246838
213	0xbd62026c	-0.05517809
214	0x3d2f604c	0.042816445
215	0xbcfce80c	-0.030872367
216	0x3db9023c	0.09033629
217	0x3d8375fa	0.064189866
218	0x3d240604	0.0400448
219	0xba30e080	-0.00067473203
220	0xbce18ea0	-0.02753383
221	0xbd9d74c9	-0.076882906
222	0xbc85322c	-0.016259275
223	0x3db550d6	0.08853309
224	0xbdb78c99	-0.08962364
225	0xbd50f0ce	-0.0510109
226	0xbd96aa3f	-0.073566906
227	0x3d74aa08	0.059732467
228	0x3ca7f8c8	0.02050437
229	0xbcb069f0	-0.02153489
230	0xbd5a05ec	-0.053228304
231	0x3d919806	0.07109074
232	0xbd3103ad	-0.043216396
233	0x3d6792b0	0.056536376
234	0x3d59da40	0.053186655
235	0xbc9e1d14	-0.019300975
236	0xbd4c1cad	-0.049832035
237	0xbd99be39	-0.07506985
238	0xbdb803b4	-0.08985081
239	0x3cb5c3e4	0.022188134
240	0x3d87fe72	0.066403285
241	0x3d324730	0.04352492
242	0xbd832f37	-0.0640549
243	0xbd33c412	-0.04388816
244	0xbd7ff4d0	-0.06248933
245	0x3db863d6	0.09003417
246	0x3d7ed38c	0.062213466
247	0xbb66e000	-0.003522873
248	0x3da57fd0	0.08081019
249	0x3bdb5180	0.006693065
250	0xbcd01b44	-0.025403626
251	0xbd9ccec9	-0.07656629
252	0xbd787bf6	-0.060665093
253	0xbc5ed6f0	-0.01360105
254	0xbcdd323c	-0.027001493
255	0x3da7103a	0.08157392

fc2.bias f4 [84]
0	0xbd3a7d59	-0.045529697
1	0x3cb9cf38	0.022681817
2	0x3d4aefc4	0.049545065
3	0xbd9eecb9	-0.07759995
4	0x3cf3f828	0.029781416
5	0x3d99afc4	0.07504228
6	0x3da2df20	0.07952714
7	0xbd954856	-0.072891876
8	0xbd026d0b	-0.031842273
9	0x3a88f640	0.0010449365
10	0x3b1c7d60	0.002387844
11	0xbc769f28	-0.015052594
12	0x3d6fb250	0.05851966
13	0xbdae366b	-0.08506473
14	0xbd8f13db	-0.06986209
15	0x3c6637e8	0.014051415
16	0xbd8b2917	-0.06794947
17	0x3d91b39c	0.07114336
18	0xbd88bf3b	-0.06677099
19	0x3c2b3aa8	0.010450996
20	0xbd39c610	-0.045354903
21	0x3d1c8814	0.03821571
22	0x3db86a4c	0.090046495
23	0xbdad9ca0	-0.084771395
24	0xbdb468e1	-0.088090666
25	0xbba79690	-0.005114384
26	0xbd3ccf6b	-0.046096247
27	0x3d62724c	0.055284783
28	0x3d24560c	0.040121123
29	0x3d19a040	0.037506342
30	0x3d125e24	0.03573431
31	0x3d82bbec	0.063834995
32	0x3cab6194	0.020920552
33	0x3d066782	0.032813556
34	0xbd218324	-0.039431706
35	0x3d93f2e0	0.07224059
36	0xbc5a1b08	-0.013312109
37	0x3d5bc33c	0.053652987
38	0x3ccf16e8	0.025279477
39	0x3d8da2c4	0.06915811
40	0x3d998482	0.07495977
41	0x3d04d5a6	0.032430314
42	0xbd4150b2	-0.047196098
43	0xbd001d17	-0.031277742
44	0xbc53b9f0	-0.012922749
45	0x3d9fe048	0.0780645
46	0xbd28e22c	-0.04123132
47	0xbd33dcec	-0.04391186
48	0xbdb1f4aa	-0.08689244
49	0xbd3024d5	-0.043003876
50	0xbdade29c	-0.08490488
51	0x3db99198	0.09060973
52	0xbdab85dc	-0.08375141
53	0xbd0cff65	-0.03442325
54	0x3d14d93c	0.036339983
55	0x3b918e20	0.0044419914
56	0x3d4d4964	0.05011882
57	0x3c451710	0.012029424
58	0xbd54fe5a	-0.05200038
59	0xbd89c878	-0.067276895
60	0x3da54512	0.08069815
61	0xbdaf7779	-0.085677095
62	0xbda1efd0	-0.07907069
63	0xbcd95de4	-0.026534028
64	0x3d94892e	0.072527274
65	0xbcdbc9bc	-0.026829593
66	0x3d910426	0.070808694
67	0xbca28d94	-0.0198429
68	0xbd0c0322	-0.034182675
69	0x3c2d30b0	0.01057069
70	0xbd70421b	-0.058656793
71	0x3d65a96c	0.056069776
72	0xbd9acf95	-0.075591244
73	0x3ca8d6e8	0.020610288
74	0x3d86e7ec	0.06587204
75	0xbda47b12	-0.08031286
76	0x3d72b0fc	0.059250817
77	0x3d24db08	0.040247947
78	0x3be97070	0.0071239993
79	0xbd2be9eb	-0.04197113
80	0xbd2144eb	-0.039372366
81	0xbdb5e2ab	-0.08881124
82	0x3d9b3a76	0.0757951
83	0x3d94377a	0.07237144

fc3.weight f4 [10, 84]
0	0x3ddbfcf9	0.1074161
1	0x3d77c1fe	0.06048774
2	0x3aebda40	0.0017994121
3	0x3ad2c480	0.001608029
4	0xbdaedef0	-0.08538616
5	0x3abfb4c0	0.0014626011
6	0x3baec6a0	0.0053337365
7	0x3da1e71d	0.079054095
8	0x3d4112ce	0.047137074
9	0x3c185628	0.009297885
10	0x3c897ce4	0.016783185
11	0x3ce2fe3c	0.027709119
12	0x3ddcd44f	0.10782682
13	0x3d8addbb	0.06780573
14	0x3d72d602	0.059286125
15	0x3d08b26e	0.03337329
16	0xbda30f06	-0.0796185
17	0x3cab6644	0.020922787
18	0x3d22a50a	0.039708175
19	0x3dbfcacd	0.09364853
20	0x3b7c6e00	0.0038517714
21	0xbd503903	-0.05083562
22	0xbccece80	-0.025244951
23	0xbd424ca8	-0.047436386
24	0x3ddd9267	0.1081894
25	0x3d7ba80a	0.06143955
26	0x3b86a040	0.0041084588
27	0xbc211998	-0.009832762
28	0xbddedab4	-0.10881558
29	0xbc9df4a8	-0.0192817
30	0x3d3de5d2	0.04636175
31	0xbd0c5388	-0.03425935
32	0x3cc7c8ec	0.0243878
33	0xbd010f02	-0.031508453
34	0xbb1638c0	-0.002292201
35	0x3cc87fec	0.02447506
36	0xbdc50144	-0.09619382
37	0x3d4fd5ba	0.050740935
38	0x3d4bcb46	0.049754404
39	0x3dc98985	0.09840683
40	0x3cc6386c	0.024196826
41	0xbd009624	-0.031393185
42	0xbdad7506	-0.08469586
43	0xbd746f47	-0.059676435
44	0x3ca49eac	0.020095192
45	0xbd96b6f0	-0.07359111
46	0x3d5f015e	0.054444663
47	0xbd82eff2	-0.06393422
48	0x3daf55cf	0.085612886
49	0x3d27834e	0.040896706
50	0x3dce1e17	0.10064333
51	0xbc2964b0	-0.010338947
52	0xbc8343d0	-0.016023546
53	0x3cd87704	0.026423939
54	0x3ca660dc	0.020309858
55	0x3d14d176	0.03633257
56	0x3d27725a	0.04088054
57	0x3dd09e61	0.101864584
58	0xbdda60ce	-0.10662995
59	0x3d107aee	0.035273485
60	0xbd5755ba	-0.05257199
61	0xbd342b3e	-0.04398655
62	0xbcdf1990	-0.027233869
63	0x3da620a5	0.08111695
64	0xb91de200	-0.00015056878
65	0x3d171eee	0.03689473
66	0x3cfbf79c	0.030757718
67	0xbdde427f	-0.10852527
68	0xbd35ea3c	-0.044412836
69	0xbdd9b502	-0.106302276
70	0xbd33252e	-0.04373663
71	0x3d01def2	0.031706758
72	0x3c597398	0.013272189
73	0x3d5949de	0.05304896
74	0x3c3012c0	0.010746658
75	0x3b03e1a0	0.0020123497
76	0x3dcaeddb	0.099086486
77	0xbdd376ee	-0.103254184
78	0xbcec77b8	-0.02886568
79	0xbd858b0f	-0.06520664
80	0x3d9bc33f	0.076055996
81	0xbced6d60	-0.028982818
82	0xbcd20bd4	-0.025640406
83	0x3da75727	0.0817092
84	0xbd24e082	-0.04025317
85	0x3ce21c44	0.027601369
86	0xbd2f628a	-0.042818584
87	0x3d99949b	0.07499047
88	0x3d72e40a	0.059299506
89	0x3d6957ce	0.056968503
90	0xbdbd63c3	-0.09247544
91	0xbdca5caa	-0.098809555
92	0xbd9a41a5	-0.07532052
93	0x3b8fb020	0.0043850094
94	0x3da43377	0.08017629
95	0x3dc355a3	0.09537818
96	0x3d8ce7cf	0.068801515
97	0xbd9360f6	-0.07196228
98	0xbc9c817c	-0.019104712
99	0x3cb40a94	0.0219777
100	0x3d6edfee	0.058319025
101	0xbcd65730	-0.026164621
102	0x3d63aa1a	0.055582143
103	0x3d10e59e	0.03537523
104	0x3cfcbcf4	0.030851819
105	0xbc2f1208	-0.010685451
106	0xbd801572	-0.0625409
107	0x3dce1499	0.100625224
108	0xbca5f344	-0.0202576
109	0x3d4b1386	0.049579166
110	0xbd1cd112	-0.038285322
111	0xbdab279e	-0.08357166
112	0x3d9e8df9	0.07741923
113	0x3dbb553b	0.09147116
114	0xbd9ba8b2	-0.076005355
115	0x3db14617	0.08655947
116	0x3d9338c7	0.07188564
117	0xbceaac18	-0.028646514
118	0xbc742218	-0.014900707
119	0x3bc120c0	0.0058937967
120	0x3d95e235	0.07318536
121	0x3cea6b7c	0.028615706
122	0x3dc57957	0.09642284
123	0xbd672aa6	-0.056437157
124	0x3d0fcb52	0.03510601
125	0x3d36dae2	0.044642337
126	0xbd0ffcb0	-0.03515309
127	0xbdba86fe	-0.09107779
128	0x3dcbb23b	0.09946104
129	0xbd784c41	-0.060619596
130	0x3d345f96	0.04403647
131	0xbd9a640e	-0.07538615
132	0x3daaf08d	0.08346663
133	0x3dd1d731	0.10246123
134	0x3c8a932c	0.01691588
135	0xbb949170	-0.004533939
136	0xbb1e58c0	-0.0024161786
137	0x37b7c000	2.1904707e-05
138	0xbcc11878	-0.023571238
139	0x3cbe6e4c	0.023245953
140	0x3ab0dcc0	0.0013493523
141	0x3dcd665d	0.1002929
142	0x3dbc7a2d	0.09202991
143	0xbca10184	-0.019654043
144	0xbbd4c3d0	-0.006493069
145	0xbd8ae506	-0.06781964
146	0xbcd0986c	-0.025463305
147	0xbd91e500	-0.071237564
148	0x3d9887a3	0.07447746
149	0x3dd8a661	0.10578609
150	0x3d088032	0.03332538
151	0x3b861ce0	0.0040927976
152	0xbc4bb238	-0.012432627
153	0xbd5cf837	-0.053947654
154	0xbc9c36a4	-0.019069023
155	0x3d881afb	0.06645771
156	0x3ce1f55c	0.027582817
157	0xbdd66980	-0.10469341
158	0x3d9403cd	0.072272874
159	0x3d74c916	0.059762083
160	0xbd2f6882	-0.042824276
161	0x3da01b5f	0.078177206
162	0xbd8373e6	-0.0641859
163	0x3dbb95e9	0.091594525
164	0xbd8d4630	-0.06898153
165	0xbdd15b87	-0.102225356
166	0xbd8bf18e	-0.06833182
167	0x3ba105e0	0.0049140304
168	0xbcb26ffc	-0.021781914
169	0xbd069430	-0.032856166
170	0xbd389514	-0.045064047
171	0xbca93700	-0.020656109
172	0xbc0eefd0	-0.008724168
173	0x3db535e5	0.0884817
174	0x3d273302	0.04082013
175	0x3d273c52	0.04082901
176	0x3daee7f7	0.085403375
177	0x3cba336c	0.022729598
178	0xbdc0d3e5	-0.09415416
179	0xbce3f0dc	-0.027824812
180	0xbd971fd2	-0.07379116
181	0xbd579229	-0.052629624
182	0x3dc7f30f	0.097631566
183	0xbdbcd2a9	-0.09219868
184	0xbd8569f2	-0.06514348
185	0xbcf1c9f0	-0.029515237
186	0xbd5ad985	-0.0534301
187	0xbd9009d2	-0.07033123
188	0xbddb0b3a	-0.10695501
189	0xbd199c0a	-0.037502326
190	0x3ddaa5e7	0.106761746
191	0xbd96e3d7	-0.07367676
192	0xbdc4aa60	-0.09602809
193	0x3d9fcb59	0.07802457
194	0x3d917503	0.07102396
195	0xbdd196db	-0.102338515
196	0x3bcd4c40	0.006265193
197	0xbd01f38c	-0.031726405
198	0xbdd3120f	-0.10306179
199	0xbd8a72cd	-0.06760178
200	0xbcecac10	-0.02889064
201	0xbda57713	-0.08079352
202	0xbd18840c	-0.037235305
203	0x3dc63bb5	0.09679357
204	0x3d19e77e	0.037574284
205	0xbd97f3f9	-0.07419581
206	0x3d82ea73	0.06392374
207	0xbddcb5fb	-0.107768975
208	0xbdb25f12	-0.087095395
209	0x3da87107	0.08224683
210	0x3d5861e6	0.05282774
211	0x3bf5d080	0.007501662
212	0xbd880b4e	-0.06642781
213	0xbdc3b041	-0.09555102
214	0x3d12f282	0.035875805
215	0xbdd3c5f5	-0.10340492
216	0x3d6f8b9e	0.05848276
217	0x3d76f832	0.06029529
218	0xbd7d2cf4	-0.06181045
219	0xbc530790	-0.012880221
220	0xbdb5e35b	-0.08881255
221	0x3d9527c9	0.07282979
222	0x3d1be806	0.03806307
223	0xbda30ba1	-0.079612024
224	0xbda2c202	-0.0794716
225	0x3c97e054	0.018539585
226	0xbdd5d2a1	-0.10440565
227	0x3da1e457	0.079048805
228	0xbd34185e	-0.04396855
229	0x3c310908	0.010805376
230	0xbdca2f5e	-0.09872316
231	0xbda556ec	-0.0807322
232	0xbc03d448	-0.008046217
233	0xbd406b05	-0.04697706
234	0xbdd9f5dc	-0.10642597
235	0x3d10ca52	0.035349198
236	0x3d7f112e	0.062272243
237	0xbd81a826	-0.063309
238	0x3c3f3168	0.011669494
239	0x3d7296a6	0.0592257
240	0x3d9c670d	0.07636843
241	0x3dcdf8df	0.10057234
242	0xbda3703a	-0.0798039
243	0x3d3ff41e	0.046863668
244	0xbd397c92	-0.045284815
245	0x3c90f1b4	0.017693378
246	0xbd2fde40	-0.042936563
247	0x3cbff7dc	0.023433618
248	0xbd972083	-0.07379248
249	0x3d2dbef2	0.042418428
250	0xbca278c4	-0.019832976
251	0x3dcea89d	0.10090754
252	0xbcc1bf4c	-0.023650788
253	0xbd844f36	-0.06460421
254	0x3d9036d7	0.0704171
255	0x3d7495a6	0.05971303

fc3.bias f4 [10]
0	0xbc90ead0	-0.017690092
1	0xbd6481c8	-0.05578783
2	0x3db7c61d	0.08973334
3	0xbcc512e8	-0.024056867
4	0xbd9cbebd	-0.07653568
5	0x3db9540d	0.090492345
6	0x3db46ac9	0.0880943
7	0xbd6039ba	-0.054742552
8	0x3d035306	0.0320616
9	0xbd1f77da	-0.03893266
