cifar_net.pth (torch, 251167 bytes, 10 tensors)

conv1.weight f4 [6, 3, 5, 5]
000000 02 23 a7 bd 83 37 d2 bd 96 ee ba bd 70 1a 9d bd
       -0.08160974 -0.10264494 -0.09127538 -0.07671058
000010 86 c9 70 bd 5c 2a 96 3d 58 68 aa 3d ca 05 38 bd
       -0.058785938 0.07332298 0.08320683 -0.044927396
000020 03 b9 cd bd 9a 37 92 bd 4a 0e e5 bd 58 37 ce bd
       -0.10045054 -0.071395114 -0.11184366 -0.1006915
000030 60 38 5f 3d 60 84 be 3c fc 27 ea bd 0a a6 cc bd
       0.054497123 0.02325648 -0.11433408 -0.09992607
000040 b2 03 8c bd b4 7a c1 3d 3a 56 96 bd 0e c0 96 3d
       -0.06836642 0.09447232 -0.07340665 0.0736085
000050 30 20 1f bd d7 41 77 bd d8 b7 a5 bd 56 cb ca 3d
       -0.038849056 -0.060365524 -0.08091706 0.099020645
000060 1c 88 8e bd 68 df 04 3c 90 28 90 3d 4c c0 77 3d
       -0.069595546 0.008109905 0.07038987 0.060486123
000070 bc a5 9b 3d 18 37 60 bd 34 0f 6b 3d c0 9f 6f 3d
       0.07599971 -0.05474004 0.057387546 0.05850196
000080 0e 59 c7 3d ee 62 46 bd f6 bf de 3d de d3 ce 3d
       0.09733783 -0.04843419 0.108764574 0.10099004
000090 64 18 66 3d 1f 15 a8 bd 1e 1b d9 3d 41 23 59 bd
       0.056175604 -0.082071535 0.10600875 -0.053012136
0000a0 b0 8c e5 3d e7 e6 eb bd f6 5a 80 3d a0 dd 7f 3d
       0.11208475 -0.115186505 0.062673494 0.062467217
0000b0 ac 30 57 bd fc 28 2a 3d 94 ff 5f 3d 40 84 d6 3a
       -0.05253665 0.041542992 0.054687098 0.0016366318
0000c0 a2 24 e4 3d 74 1d 31 3d 4c 73 8a bc 70 37 57 bd
       0.111398 0.04324098 -0.016900681 -0.052543104
0000d0 cc 67 51 bd 90 19 c4 bd 8c f0 74 3d f4 8e b3 bd
       -0.05112438 -0.09575188 0.059799716 -0.087675005
0000e0 7a 81 94 3d f0 db 47 3d 02 5b 82 3d a0 f4 35 3b
       0.07251258 0.048793733 0.063650146 0.0027764216
0000f0 b8 57 04 3c a8 7f 37 bd cc 05 e8 bc 88 05 91 bc
       0.008077554 -0.044799477 -0.028323077 -0.017702833
000100 cf 51 6b bd 6c e7 24 3d 06 21 e1 bd 6d f3 a7 bd
       -0.057451066 0.040259764 -0.10992627 -0.08200727
000110 0b e7 b3 bd 48 a6 eb 3c 50 8e c5 3d 90 86 b7 bc
       -0.08784302 0.028765813 0.096462846 -0.022403032
000120 c2 a3 e5 bd 38 fe 80 bc 76 62 85 3d 68 ac 8d 3c
       -0.11212875 -0.015746221 0.065129206 0.017294124
000130 e0 fd 4d 3c 06 a0 8b bd e6 8b cf bd 8e 78 a2 3d
       0.012572736 -0.068176314 -0.101341054 0.0793315
000140 e0 08 5b 3d 60 7e 80 bd d4 67 1f 3d 27 46 94 bd
       0.05347526 -0.06274104 0.038917378 -0.07239943
000150 f0 8a 66 bd cc 28 80 bd 40 72 0f 3c d8 a8 76 bc
       -0.056284845 -0.062577814 0.008755267 -0.015054904
000160 48 33 b1 3c b0 b0 40 bc 4a 54 3f bd dc 7c fe bc
       0.021630898 -0.011760876 -0.046711244 -0.031065397
000170 2e bd 8e 3d 38 ee 8e 3d a6 e4 2e bd 0e 67 aa bd
       0.06969677 0.0697903 -0.042698525 -0.08320437
000180 b2 8c 83 3d 4a a3 cd 3d fa 91 a9 bd 5c f7 d3 3d
       0.0642332 0.100409105 -0.08279796 0.103499144
000190 5c bd 35 3d 3a 73 8b bd 60 37 1c 3c d0 b0 cb bd
       0.04437004 -0.06809087 0.009534687 -0.09945834
0001a0 f8 bc bb bd 5e d8 9a 3d 38 31 ac bc ab df a1 bd
       -0.09166902 0.075608 -0.021019563 -0.079039894
0001b0 04 08 77 bd 06 f6 e5 bd 10 8f 95 3c c6 e0 a0 3d
       -0.06031038 -0.11228566 0.018256694 0.07855372
0001c0 14 e2 bb 3d 4a 19 47 bd fc 77 d1 3d 28 3a fd 3c
       0.0917398 -0.048608102 0.10227963 0.03091152
0001d0 b8 36 f2 bc c4 77 d3 bd 50 a8 53 3d 98 d1 b2 3d
       -0.029567108 -0.10325578 0.051674187 0.08731383
0001e0 f0 82 9a bd b2 ac 9f bd c8 73 96 bc a0 22 94 3d
       -0.075445056 -0.07796611 -0.018365756 0.07233167
0001f0 00 aa 90 39 6e 28 c3 3d 32 8e 96 3d 60 7a e5 bc
       0.0002759248 0.09529196 0.0735134 -0.028012455
000200 1c f9 a5 bc f8 12 0a 3d a4 67 18 bd 91 cc e9 bd
       -0.020260386 0.033709496 -0.037208214 -0.11415971
000210 24 4e 84 bc a0 8d bd bb c8 02 98 bd 3a 91 90 bd
       -0.016150542 -0.0057847053 -0.074224055 -0.0705895
000220 b4 25 85 bd ff de 62 bd 40 dc dd bc 38 99 9a 3d
       -0.06501332 -0.055388447 -0.027082562 0.075487554
000230 2c 50 1d bd 92 7e d1 3d ce 17 d2 bd 30 1a 33 3c
       -0.038406536 0.102292195 -0.10258447 0.010931537
000240 e0 1c 4a 3d 40 81 82 ba 60 4f 9a bc dc e5 bb bd
       0.049343944 -0.0009956732 -0.018836677 -0.091747016
000250 80 61 3d 3b 46 f7 53 bd 60 47 fe 3c 10 9b ba 3d
       0.0028897226 -0.05174949 0.031039894 0.09111607
000260 e0 10 6a bb b0 04 84 3c 33 ec c8 bd 1e e3 8e 3d
       -0.0035715625 0.016115516 -0.098106764 0.06976913
000270 38 c3 eb 3c 2e 1e c6 bd 98 21 95 3c 3c e6 a9 bd
       0.028779611 -0.09673725 0.018204495 -0.08295867
000280 40 9a de ba 5e 63 dc 3d 54 1c 13 bd 38 9d 5d 3d
       -0.0016983226 0.1076114 -0.035915688 0.054105014
000290 8e 26 24 bd e8 e2 19 3d b0 42 44 3c 1c 9a 11 3d
       -0.04007583 0.03756991 0.01197879 0.03554736
0002a0 dc ef 82 3d b5 01 e4 bd 70 c5 a8 3b e4 76 d4 bc
       0.06393406 -0.11133138 0.0051504895 -0.025935598
0002b0 b0 e4 43 3c 2e f5 eb 3d 9f 66 5d bd f8 b2 49 bc
       0.011956379 0.11521374 -0.054052945 -0.012310736
0002c0 c8 5b 85 3d 8c ae 60 bd 39 27 96 bd d4 15 00 3d
       0.065116465 -0.05485396 -0.073317 0.031270817
0002d0 d4 18 bb 3d 30 45 ef bb b8 9d a0 bd 70 48 32 3d
       0.09135595 -0.007301949 -0.078425825 0.043526113
0002e0 48 da ba bc 24 d5 a8 bd ca df ad 3d ba 34 8f bd
       -0.022809163 -0.08243778 0.0848995 -0.06992479
0002f0 10 04 ac 3d 30 cf 8a 3c d0 8f 5f bc f4 b2 e3 3d
       0.08399212 0.016944498 -0.013645127 0.11118117
000300 76 3a d3 bd d5 1a 75 bd 4e a8 92 3d 77 7f a7 bd
       -0.10313885 -0.059840042 0.07161008 -0.08178609
000310 10 7f b8 3d 64 18 44 bd 2a 52 88 3d 00 6d 97 3c
       0.0900861 -0.047874823 0.066562966 0.018484592
000320 28 06 89 3d 64 4f 0d 3d a0 a4 89 3d 70 cd 69 bd
       0.06690627 0.03449954 0.06720853 -0.057080686
000330 dc 6c 3c 3d e4 d7 eb bc a8 f0 77 3d 48 e5 71 3d
       0.046002254 -0.028789468 0.060532242 0.05905655
000340 6e 82 95 bd 1c f9 b8 3d 40 9f 71 3d f8 63 2e bc
       -0.07300268 0.09031889 0.058989763 -0.010643952
000350 dc 93 2c 3d 0c e5 6c 3d c8 f7 b2 3d c0 78 12 3d
       0.042133197 0.057835624 0.08738667 0.035759687
000360 0c de b2 bc 30 d2 29 3d fa c7 9a 3d 2c 9b d3 bd
       -0.021834396 0.041460216 0.07557674 -0.10332331
000370 d4 b8 07 3d e0 6b e0 bb cc 2d c8 bd 60 81 9e 3c
       0.03313525 -0.006848797 -0.0977436 0.0193488
000380 e0 80 09 3c c8 18 33 3d be 3f 0f bd e6 e5 cb 3d
       0.008392543 0.043724805 -0.0349729 0.09955959
000390 de a1 b7 3d 52 81 b5 3d 00 97 36 bd 26 19 df 3d
       0.089664206 0.088625565 -0.0445776 0.108934686
0003a0 b4 f4 6a 3d 3c 1e 5d 3d 88 8c b8 3c a0 6b 97 bb
       0.057362273 0.053983912 0.022527948 -0.004620984
0003b0 47 a2 dc bd 98 d1 ea bd 84 92 c4 3d fc ac c5 3d
       -0.107731394 -0.11465758 0.09598258 0.09652135
0003c0 74 c0 8a 3d 5c 28 4e 3d 54 fe 97 3d 8c 97 41 3d
       0.06774989 0.05033146 0.07421556 0.047263667
0003d0 04 d6 c2 3d 0c 7d 42 3d 60 78 61 3d 48 dd ad bd
       0.095134765 0.047482535 0.05504644 -0.08489472
0003e0 28 22 d2 bc b4 9d d2 bd a0 69 22 3d c9 b1 e1 bd
       -0.025651053 -0.10283986 0.039651513 -0.11020238
0003f0 82 76 8f bd da 4b c6 3d 10 1c 3c 3c 98 d6 e1 bd
       -0.070050254 0.09682436 0.0114813 -0.11027259

conv1.bias f4 [6]
000000 a2 2e 48 bd aa d3 a2 bd 80 0e 88 3b 18 c9 82 3d
       -0.048872598 -0.07950528 0.004152119 0.06386012
000010 d2 27 ae 3d 2e 6b ac 3d
       0.08503689 0.084188804

conv2.weight f4 [16, 6, 5, 5]
000000 44 2d b9 bc fc ad b7 3c a2 a3 d0 bc 2d f3 98 bd
       -0.022604592 0.02242183 -0.025468651 -0.07468257
000010 cd 8c 4e bd f4 09 83 3d 8f d8 86 bd 38 7b 61 bd
       -0.050427247 0.06398383 -0.06584274 -0.05504915
000020 23 ba 46 bd 28 27 8d bd 83 a2 6e bd 30 85 9c bd
       -0.048517358 -0.06892234 -0.058260452 -0.07642591
000030 28 9f 5f 3d 14 1c f5 3c 40 80 39 bc c0 b0 5d bc
       0.054595143 0.029920615 -0.011322081 -0.01353091
000040 e8 9d 36 3c e9 56 82 bd 9c 2c bc bc eb ac 5f bd
       0.011146046 -0.06364233 -0.02297049 -0.054608267
000050 64 24 6e bd 68 cd a6 bd f5 8e a6 bd 63 3e 3c bd
       -0.058140174 -0.08144647 -0.08132736 -0.045957934
000060 67 8f 5b bd 00 b1 8a bd 23 cb 9a bd 62 ad 20 3d
       -0.053603556 -0.06772041 -0.075582765 0.03922785
000070 c3 0e 86 bd 86 9b 97 bd 9a 82 91 3d 1c 0c 75 bd
       -0.06545784 -0.074027106 0.071049884 -0.059826
000080 39 43 a5 bd d5 ab 00 bd 5e 67 01 3d 46 28 a5 bc
       -0.08069462 -0.03141387 0.03159272 -0.020160805
000090 d8 eb a6 3c 00 d1 d9 bb 76 b7 18 3d 91 60 22 bd
       0.020376131 -0.006647229 0.037284337 -0.039642874
0000a0 28 fe 68 3d 60 eb 76 bc 00 41 8f bd f8 15 bf bc
       0.056883007 -0.015070766 -0.0699482 -0.023325905
0000b0 60 9d f2 bb 48 73 84 3d 34 da 61 3d e4 e2 67 3d
       -0.0074040145 0.06467301 0.055139735 0.056612864
0000c0 64 3b 7b 3d 9c a3 a5 3d 9c 72 e7 3c 53 aa 84 bd
       0.061335936 0.08087847 0.028252892 -0.06477799
0000d0 88 90 4c bd 55 07 94 bd a2 e5 81 3d ea 3a 91 bd
       -0.049942523 -0.07227961 0.06342627 -0.07091315
0000e0 e3 11 92 bd 24 ae 1c 3d dc 19 d7 bc b8 32 70 3d
       -0.07132318 0.03825201 -0.026257448 0.05864212
0000f0 0e 05 83 3d 30 c6 64 3d 6e 5a 0f bd 12 77 9f 3d
       0.063974485 0.05585307 -0.03499835 0.07786383
000100 2e fe 21 bd e0 50 de 3c 4a 91 8b bd be d4 91 3d
       -0.039549045 0.027138174 -0.06814821 0.071206555
000110 04 7f 60 3d ec 76 a3 bd 14 f2 16 bd 14 9e 8f 3d
       0.05480863 -0.07981667 -0.036851957 0.07012573
000120 f8 34 69 3c d0 6a b9 bb 3a 79 94 3d b8 67 ff bc
       0.01423382 -0.005658485 0.07249685 -0.031177387
000130 d4 c3 9d 3d 70 3a fc 3c 29 71 9d bd ba 56 9f bd
       0.07703367 0.030789584 -0.07687599 -0.07780214
000140 68 6f 9b bd 0c 1e 7f 3d f4 c4 29 3d 80 7d 3a bb
       -0.075896084 0.062284514 0.041447595 -0.0028456151
000150 d4 be b9 3c b8 d9 bf 3c 62 b5 9d 3d d2 24 c7 bc
       0.022674002 0.023419246 0.07700612 -0.02430955
000160 90 e8 9e 3c ce d5 9c 3d e4 45 dc 3c 87 52 31 bd
       0.019398004 0.076579675 0.026888795 -0.043291595
000170 a0 d6 1e 3d 74 4b a4 3c c7 8f 67 bd 62 2c 9c 3d
       0.0387789 0.02005551 -0.0565336 0.07625653
000180 86 3d 2d 3d 76 5b fc bc fc 22 6b 3d 96 fc 9e 3d
       0.042295 -0.03080533 0.05740641 0.07763021
000190 3e b4 8a bd 00 0b f7 ba 62 4c d4 bc 80 f7 c1 ba
       -0.0677266 -0.0018847883 -0.025915328 -0.0014798492
0001a0 7a df 24 bd 26 54 af bc d2 e4 99 3d ec 6c 23 3d
       -0.040252186 -0.02140243 0.07514347 0.039898798
0001b0 82 17 1d 3d 24 e3 5f 3d 44 65 7e 3d b6 82 ac bc
       0.038352497 0.054659978 0.062108293 -0.021058422
0001c0 02 25 17 bd 18 ab 77 3c 88 93 dd 3c 44 66 4e 3d
       -0.036900528 0.0151164755 0.027047887 0.050390497
0001d0 80 2e 26 bc dc 53 91 3d 14 e6 6c 3d c0 84 89 3d
       -0.010142922 0.07096073 0.057836607 0.06714773
0001e0 82 70 a2 3d a0 de b9 3c 38 e3 9b 3d 1c 72 a3 3c
       0.079316154 0.022689164 0.07611698 0.019951873
0001f0 90 68 26 bc 9e 18 00 3d cc 79 89 3d bc f3 86 3d
       -0.010156766 0.031273477 0.06712684 0.065894574
000200 68 09 04 bc 28 cb 95 3d 2e 2e 9c 3d 08 82 2f 3d
       -0.008058883 0.073141396 0.076259956 0.042848617
000210 27 b7 2e bd 9c d6 4e bd c9 b7 29 bd 3c 1c bc 3c
       -0.042655136 -0.050497636 -0.041435037 0.022962682
000220 70 eb 3d 3d 28 57 8f 3d e0 ef 05 3d 88 85 3d 3d
       0.04636711 0.069990456 0.032699466 0.046269923
000230 d3 6d 97 bd 17 77 33 bd dc d6 ae 3c 00 fd aa b9
       -0.07393994 -0.043814745 0.021342687 -0.00032613426
000240 ee 33 95 3d 30 78 ad 3b 0c b4 e4 3c 80 ef d4 bc
       0.072852954 0.0052938685 0.027917884 -0.025993109
000250 ec 10 53 3d bc c0 f1 3c e4 a5 7d bd 2b 22 8a bd
       0.05152981 0.029510848 -0.061925784 -0.06744798
000260 e6 3d 30 bd ed 9c 49 bd 98 66 ee 3c e8 bb 53 bc
       -0.04302778 -0.04922192 0.029101655 -0.012923218
000270 80 e7 46 bb 68 03 da 3c 86 64 26 3d da 34 55 bd
       -0.0030350387 0.026612952 0.04062321 -0.052052356
000280 cc 4a 7b 3d 78 e8 0f bd e2 0d 6b bd f8 53 57 3c
       0.06135063 -0.03513381 -0.057386287 0.013142578
000290 c8 59 84 bd 78 19 0d 3c ae ff 9b bd f0 eb b0 3c
       -0.06462437 0.008612029 -0.076171264 0.021596879
0002a0 f4 02 82 3c 0a 41 2c 3d 9e 80 95 3d 58 d7 91 bc
       0.015870549 0.042054214 0.072999224 -0.01780288
0002b0 38 ea 9d 3d 18 c6 c6 3c 6e 1a 8c bd c0 40 61 bc
       0.07710689 0.02426438 -0.068409786 -0.013748348
0002c0 90 27 5c 3d 1e 2f 8c bd 78 e6 97 3c ac 5c 7b 3d
       0.053748667 -0.068449244 0.018542513 0.061367676
0002d0 ae c5 be bc b4 23 35 3d 8a 20 17 3d b6 60 a0 bd
       -0.02328762 0.044223502 0.036896266 -0.07830946
0002e0 fc e7 1a bd 00 aa 9e 3d 24 55 e1 3c 70 c7 b6 3c
       -0.037818894 0.07747269 0.027506419 0.022311896
0002f0 e2 f3 1d 3d 60 a9 fa 3b e0 3a 27 bd a0 37 fe bb
       0.038562663 0.0076495856 -0.040827632 -0.007758096
000300 a6 62 83 bd 3a 17 8f bd e6 3e 2f 3d d1 3b 9c bd
       -0.064153 -0.06986852 0.042784594 -0.076285966
000310 54 c6 66 3d b8 59 86 bd 6a 41 a0 bd 16 26 cf bc
       0.056341484 -0.06560081 -0.07824977 -0.025286715
000320 3c 81 70 3d 24 b0 63 bd cc 32 2a 3d 1f 0e a6 bd
       0.058716998 -0.055587903 0.04155235 -0.08108162
000330 c0 ca e2 bc 21 58 39 bd 3c 77 c1 bc 10 f9 a6 3c
       -0.02768457 -0.045250062 -0.023616426 0.020382434
000340 f3 7d 97 bd a4 ba a2 3c da 4c 39 bd 5e 41 69 bd
       -0.0739707 0.019864388 -0.045239307 -0.056947105
000350 2c bc 67 3d 9c 6b 94 3c a4 78 c2 3c 80 93 b2 3b
       0.05657594 0.018117718 0.023739167 0.0054497123
000360 70 a0 e2 3c 30 2b ec bc ba b9 e4 bc 74 fa 34 3d
       0.027664393 -0.028829187 -0.027920593 0.044184163
000370 58 c9 ba 3c a2 2b 1b bd 20 61 80 bb 56 94 a6 3d
       0.022801086 -0.03788341 -0.003917828 0.081337616
000380 90 4e a6 bc 70 a8 15 bc a9 96 a6 bd 9e cf 56 bd
       -0.020301133 -0.009134397 -0.08134205 -0.052444093
000390 40 dd f1 3a 80 22 6b bc d2 9e 6f bd fb 1b 41 bd
       0.0018452778 -0.014351487 -0.058501072 -0.047145825
0003a0 bc ec 02 3d 90 e6 81 3d a4 ff 3e 3d f0 10 5b bd
       0.03196405 0.063428044 0.046630517 -0.05348295
0003b0 37 ac 5b bd 0c e2 84 bc 10 4c 5f bd 09 a6 17 bd
       -0.053631034 -0.016221069 -0.0545159 -0.037023578
0003c0 88 01 54 3d 60 87 3b 3d 28 08 5f 3d 4c 52 9c bd
       0.051759273 0.0457834 0.054451138 -0.076328844
0003d0 24 31 00 bd 3c d1 80 bd 5c e8 95 bc b2 07 a0 3d
       -0.031296864 -0.06289908 -0.018299274 0.07813968
0003e0 54 73 b5 3c 43 2a 39 bd ec 05 a0 bc f2 d2 88 bd
       0.02214972 -0.04520632 -0.019534074 -0.066808596
0003f0 da 2d 8f 3d 30 87 ae 3c 24 ac de 3c 81 6e 99 bd
       0.06991167 0.021304697 0.027181692 -0.0749178

conv2.bias f4 [16]
000000 32 d7 8b 3d bc a1 53 3d 1a 7a 14 bd 10 c6 89 3d
       0.068281546 0.051667914 -0.036249258 0.067272305
000010 6e 88 25 3d d3 3f 19 bd b4 d0 a3 bd ec f7 5c 3d
       0.040413313 -0.037414383 -0.07998791 0.053947374
000020 54 c4 13 bd 8b 37 17 bd 18 ca 19 bc 0b be 93 bd
       -0.036075905 -0.036918204 -0.009386562 -0.07213982
000030 a8 c8 14 3d f3 36 24 bd 0e aa a5 bd 4f 3a 3e bd
       0.036324173 -0.040091466 -0.08089076 -0.046442326

fc1.weight f4 [120, 400]
000000 88 3e 7f bc 72 fd c6 3c 8a 7d a8 3c 7a de e1 bc
       -0.015578873 0.024290774 0.020567674 -0.027571905
000010 da 3b ba bc f8 00 7c bc a9 cf 25 3d 88 48 46 bd
       -0.022733618 -0.01538109 0.040481243 -0.048409015
000020 70 cf 89 3b d3 d7 d1 bc 87 cf c5 bc 68 1e 33 bd
       0.0042056367 -0.025615608 -0.024146808 -0.04373017
000030 24 cc 5e 3c 7a a8 c2 bc 30 c9 7a bb b3 02 a4 bc
       0.013598476 -0.023761977 -0.003826689 -0.020020818
000040 c5 40 3f 3d e0 e8 42 3c 03 72 0c 3d 10 6e b9 3b
       0.04669263 0.011896342 0.034288418 0.0056588724
000050 59 26 1b 3d 6a 33 24 bd a3 b9 d7 bc f0 f2 90 bc
       0.037878368 -0.040088095 -0.026333636 -0.017693967
000060 e1 b2 3a 3d 20 ac 76 3b 23 c4 dc bc 97 1c 22 3d
       0.04558075 0.0037639216 -0.026948994 0.039578047
000070 13 7a 3a bd b0 51 03 bd c3 8f dd bc 1d 9b 1b 3d
       -0.045526575 -0.032060325 -0.02704609 0.037989724
000080 21 93 24 3d 23 48 35 3d 62 7a db 3c fc df 87 bc
       0.040179376 0.044258248 0.026791755 -0.016586296
000090 55 32 0a bd 60 8c a0 3a 78 38 0b bd 97 0f b9 bc
       -0.033739407 0.0012248866 -0.0339894 -0.022590442
0000a0 43 19 35 bd 50 4a ad bb fe a7 12 bd a6 b4 a3 3c
       -0.044213545 -0.0052883998 -0.03580474 0.0199836
0000b0 84 08 62 3c 95 c4 13 3d 63 78 04 3d d7 ed 31 bd
       0.013795976 0.036076147 0.032341372 -0.043439712
0000c0 f0 be 98 bb 4a 84 98 3c 93 f6 3e bd 39 97 33 3d
       -0.0046614334 0.018617768 -0.04662187 0.04384539
0000d0 29 31 20 3d 40 da c6 3a 98 25 00 bc 07 76 3f 3d
       0.039109383 0.0015171245 -0.007821463 0.04674342
0000e0 d4 46 45 bc 07 03 c0 bc 2a 53 84 3c a8 23 9e bb
       -0.0120408125 -0.023438944 0.016152937 -0.004826028
0000f0 7e 61 94 3c 55 17 4b bd 3f 82 1a 3d 7e 40 c3 3c
       0.018112894 -0.049582798 0.03772187 0.023834463
000100 28 00 d0 3b ab a0 25 bd c0 e5 ce bc 5d 9b f0 bc
       0.006347675 -0.040436428 -0.025256038 -0.029370958
000110 8f d4 32 3d 27 d3 a4 bc 50 00 f3 3b 3d 23 0b 3d
       0.043659743 -0.020120217 0.0074158087 0.033969153
000120 71 bd 0f 3d 7b a3 21 3d a8 07 7a bc 55 e6 07 3d
       0.035092775 0.039462548 -0.015260614 0.033178646
000130 c4 db 68 3c cb da 3f 3d fb c4 3c bd d4 30 7d bc
       0.014212552 0.046839517 -0.046086293 -0.015453536
000140 a7 1e b1 bc 1d ef 2c bd d7 b8 2b 3d 66 32 a6 3c
       -0.021621061 -0.042220224 0.041924324 0.020287704
000150 f9 b1 4a 3d a2 08 84 3c d0 ca 9f bb 28 3f 29 bc
       0.049486134 0.016117398 -0.004876472 -0.010329999
000160 c8 88 78 bc 52 50 b5 3c 0f 1c 15 3d 12 50 9f 3c
       -0.01516933 0.022133026 0.036403712 0.01944736
000170 1d 42 bb bc a8 2e 28 bc 5b ef 38 3d b7 6e ee bc
       -0.022858674 -0.01026503 0.045150142 -0.029105527
000180 79 18 07 3d 12 d6 be 3c 13 9e ca bc a9 ee 3f 3d
       0.032982323 0.023295436 -0.024733579 0.046858463
000190 14 fd 3c bc dd 78 22 3d 80 a4 02 3b a6 18 eb 3c
       -0.011534948 0.039666045 0.0019934475 0.028698277
0001a0 79 98 24 3d 0d 1c 38 bd 94 a2 61 bc 31 4d 29 3d
       0.04018447 -0.044948626 -0.013771672 0.04133338
0001b0 45 aa 07 bd 73 97 29 3d dd b5 fe bc 37 f1 f2 bc
       -0.033121366 0.0414042 -0.031092579 -0.029656036
0001c0 d8 26 df bb bb d1 13 3d ba 89 b9 3c 3a bb e6 bc
       -0.0068100505 0.036088686 0.022648681 -0.028165448
0001d0 39 53 22 3d 3e e4 f3 3c c0 90 1f bd 58 60 b2 3b
       0.03963015 0.02977192 -0.038956404 0.005443614
0001e0 00 f2 60 3a 9e 8e 85 3c 20 18 db bc c7 24 f9 bc
       0.00085809827 0.016303357 -0.026744902 -0.030413045
0001f0 61 76 23 3d 1a 69 ca bc c0 54 8a 3a 60 9a de 3a
       0.039907817 -0.02470832 0.0010553822 0.0016983263
000200 2e f0 8e 3c c3 82 40 3d 7b 5f 0a 3d 87 00 1f 3d
       0.017448511 0.046999704 0.033782464 0.038818862
000210 98 ff 9f bb 5a 47 a2 3c 54 06 5e 3c fd 84 a8 bc
       -0.004882764 0.019809414 0.013551313 -0.020571226
000220 cb b4 1b 3d da 5e e0 bc d1 da 38 3d bb 2e 2e 3d
       0.038014214 -0.027388979 0.045130555 0.042525034
000230 d8 c2 2b bd 4d 0e 19 3d 4c 57 28 3c 80 b0 78 ba
       -0.041933864 0.037367154 0.010274719 -0.000948675
000240 f7 ad 36 3d 8e c8 20 bd bc e2 5c 3c 77 0b 26 3d
       0.0445995 -0.039253764 0.013481792 0.040538277
000250 39 d5 27 3d 68 32 73 bc d6 6c fe 3c f2 e4 41 bd
       0.04097483 -0.014843561 0.031057756 -0.04733748
000260 cb 92 31 3d 14 7e 6c bc 38 f2 73 bc 07 5c d5 bc
       0.043352883 -0.014434356 -0.014889292 -0.026044859
000270 6e 84 be 3c 0e bd fa 3c 83 cc 3c bd 40 9b 99 ba
       0.023256507 0.030607726 -0.046093475 -0.0011719242
000280 ea 17 81 3c 7a 9b a9 3c 48 61 31 3c 50 cd 4b bd
       0.015758473 0.02070402 0.010826416 -0.049756348
000290 22 42 ce 3c 52 59 9a 3c a4 5d 88 bc a3 57 af bc
       0.025178019 0.01884142 -0.016646214 -0.021404093
0002a0 a2 8c 97 3c ea f4 80 3c 40 47 ac 3a 09 2c 3b 3d
       0.018499676 0.015741784 0.0013143793 0.045696292
0002b0 10 46 b2 3b 2a 0c 0a bd 0a 4e a0 3c a0 70 60 3b
       0.005440481 -0.033703007 0.019568462 0.0034246817
0002c0 2c ae 7e 3c 5d 1a 0b bd 6d dc 13 bd 52 0b b4 3c
       0.0155444555 -0.03396069 -0.036098886 0.021978054
0002d0 54 f3 39 3c c0 f8 fd bc f7 14 3d 3d 02 83 9c 3c
       0.011349518 -0.031002402 0.04616257 0.019105438
0002e0 c9 d9 1f 3d 65 23 02 3d d4 9f 7f bc 6d cc 44 3d
       0.039026055 0.031772036 -0.015602071 0.048046518
0002f0 f1 90 1c 3d 04 5f 4d 3c 33 16 40 3d b0 ae 44 bb
       0.038224164 0.0125348605 0.04689617 -0.0030011348
000300 32 99 3d bd ae ca b3 3c 40 e4 b4 bb 53 c4 13 bd
       -0.046288677 0.021947231 -0.0055203736 -0.0360759
000310 b9 54 40 3d 8d c4 04 bd 21 58 4a 3d 47 da 16 3d
       0.046955798 -0.032414008 0.049400453 0.03682926
000320 90 ae fc 3b 6e 68 08 bd ef 96 39 bd b4 92 11 3c
       0.007711239 -0.033302717 -0.045309957 0.008885074
000330 1a 33 e4 3c 60 c5 a5 bc 00 2c 67 b8 6c 85 32 3c
       0.027856398 -0.020235717 -5.511567e-05 0.010896068
000340 30 32 72 3b 72 f7 af 3c 83 9c 41 bd 58 77 dc bb
       0.0036956184 0.021480296 -0.0472684 -0.006728094
000350 e0 fb 26 bd 02 14 c2 3c d8 d7 ab bb 8e bf c5 3c
       -0.04076755 0.023691181 -0.0052442364 0.024139192
000360 c0 65 ea bb c5 83 12 3d 50 86 7f 3b 1a 8d d2 3c
       -0.007153243 0.035770196 0.0038989969 0.025702048
000370 60 1f ab 3a a5 3f 35 3d bd 14 bd bc 5f 43 2a 3d
       0.0013055615 0.04425015 -0.023081178 0.041568156
000380 04 68 69 3c c0 e0 2d ba 26 d2 98 bc 40 a0 f8 ba
       0.014245991 -0.00066329166 -0.018654894 -0.0018968657
000390 48 46 4c bc 80 a9 02 3c 9c 17 61 3c 58 fe af bb
       -0.012467928 0.007974982 0.013738539 -0.0053708963
0003a0 c2 53 b7 3c a2 4a 0d bd 1d 8a 3e bd f2 93 d4 3c
       0.022378806 -0.034495004 -0.046518434 0.025949452
0003b0 08 9d 47 3c 6c 75 5d 3c 32 05 14 bd 07 2a 2c 3d
       0.012183435 0.013516765 -0.036137767 0.042032268
0003c0 50 b1 67 3b a8 1e 97 bb 49 c5 23 3d 20 85 26 3b
       0.003535349 -0.004611809 0.039983068 0.0025408939
0003d0 17 14 28 3d e2 2c 06 bd d0 08 65 3b e3 0f f3 bc
       0.041034784 -0.032757647 0.003494788 -0.029670661
0003e0 d3 0f c4 bc 6c db 66 3c 9e 49 80 3c 8a f6 1e bd
       -0.023933327 0.0140904 0.015660103 -0.038809337
0003f0 c0 0e 2f bd 1a 38 28 bd d0 82 d1 3b 81 19 30 3d
       -0.042738676 -0.041069128 0.006393768 0.042993072

fc1.bias f4 [120]
000000 16 d2 b4 3c fd 0d 3f bd 20 d9 25 3b 6a 8c 36 bd
       0.022072833 -0.0466442 0.0025306419 -0.044567503
000010 fe 94 f8 3c 05 bc 31 bd 0a a2 20 bd 28 fa bd bb
       0.030344483 -0.0433922 -0.039217032 -0.005797643
000020 b0 88 ef bc 4c de 95 bc 4d db 22 3d c8 d1 2d 3c
       -0.029239982 -0.018294476 0.039759923 0.010609098
000030 95 60 41 3d 62 f5 f6 3c 7d bd 49 3d 12 ed 97 3c
       0.04721125 0.030146305 0.049252976 0.018545661
000040 27 21 31 3d ea 09 8c 3c d9 ed 04 3d 5b 8b 0e bd
       0.043244507 0.017094571 0.03245339 -0.03480087
000050 95 67 2b 3d ca 06 96 3c 0c fb 58 bc 04 9e 57 3c
       0.04184683 0.018313784 -0.013243448 0.013160232
000060 8c b3 34 bc 18 34 09 3c 94 59 00 3c 84 57 7a 3c
       -0.011029135 0.0083742365 0.007833857 0.015279654
000070 47 4e 9c bc a2 b3 47 bd b0 69 ee bc 12 91 dc 3c
       -0.019080294 -0.048755296 -0.02910313 0.026924644
000080 66 cb c5 3c 00 8f ed ba 20 84 2d bc f8 30 15 bd
       0.02414484 -0.0018124282 -0.010590583 -0.036423653
000090 1a 86 44 bd 1b 7f 08 3d 20 ff 3a bc c7 ca 3e 3d
       -0.04797945 0.033324342 -0.011413366 0.046580102
0000a0 67 31 2e 3d 62 10 93 3c a0 80 f4 ba e0 33 15 bb
       0.042527582 0.017952148 -0.0018654056 -0.0022766516
0000b0 a8 75 4a bc 72 7f 95 3c b7 bd a7 bc e2 c4 f7 3c
       -0.012357153 0.018249247 -0.020476205 0.030245248
0000c0 e8 74 13 bc ca b6 88 bc 97 ff 2e 3d d0 28 a2 bb
       -0.009000041 -0.016688723 0.04272422 -0.004948713
0000d0 c0 64 ea ba 60 7e 06 3c 5a 63 4a bd db bd 3e 3d
       -0.0017882809 0.008208841 -0.049411155 0.04656778
0000e0 c0 0e 43 bc 00 64 50 ba 4a 38 83 3c 4a 59 fe 3c
       -0.011905372 -0.00079494715 0.016018052 0.031048436
0000f0 30 00 fc 3b fa fb f0 3c c5 46 01 bd e3 52 b9 bc
       0.007690452 0.029417027 -0.03156163 -0.022622531
000100 bc 04 97 bc 18 52 fc bb a5 fd 40 3d 94 6c 7e 3c
       -0.018434875 -0.007700216 0.047116894 0.015528817
000110 98 38 ce 3b 23 ac a4 bc 35 b8 41 3d 7a c1 e9 bc
       0.0062933676 -0.020101612 0.047294814 -0.02853464
000120 63 a8 a6 bc 5a 9f de 3c 18 6f 38 3c 0c 3d 50 3c
       -0.020343965 0.027175594 0.011256956 0.012709867
000130 48 bc 31 bc f1 bd 36 3d d2 e0 b2 3c 41 e5 25 3d
       -0.010848112 0.044614736 0.021835718 0.040501837
000140 72 11 ed 3c be 16 0d bd 40 ac ba 3a 49 f9 3c 3d
       0.028938983 -0.034445517 0.0014242008 0.046136174
000150 06 bf a1 3c d2 88 20 bd 4a 89 34 bd 60 59 bb ba
       0.019744407 -0.039192982 -0.04407624 -0.0014293604
000160 c3 a0 0f 3d 60 5d ce ba c0 4e de bb d4 73 43 bc
       0.035065424 -0.0015744381 -0.00678429 -0.011929471
000170 35 b5 09 3d 00 32 db ba e2 89 a2 3c c0 30 e4 ba
       0.033620078 -0.0016723275 0.019841138 -0.0017409548
000180 13 ed a7 bc ba a6 e9 bc 27 93 b0 bc 23 60 44 bd
       -0.020498788 -0.028521884 -0.021554543 -0.047943246
000190 b3 16 fa bc d2 0e 00 bd 76 05 92 3c 20 99 4c 3c
       -0.030528402 -0.031264134 0.01782487 0.01248768
0001a0 95 ff 3c bd 30 ae 43 bb 15 20 2d 3d 51 9b 04 3d
       -0.04614218 -0.0029858463 0.042266924 0.032374684
0001b0 90 ae eb bc 1a 07 41 bd cf 75 42 bd 99 7c 4c 3d
       -0.028769761 -0.047125913 -0.047475632 0.049923513
0001c0 b6 53 8e 3c 98 21 20 bc 36 4e 25 bd 1d e5 f3 bc
       0.0173739 -0.009773634 -0.04035779 -0.029772336
0001d0 dc c7 08 bd c3 65 31 3d 29 50 13 3d e7 98 32 bd
       -0.033393726 0.04330994 0.03596512 -0.04360285

fc2.weight f4 [84, 120]
000000 c8 21 6a 3d 20 42 38 3d 1c 3d a8 3d 1d 9e 0e bd
       0.057161123 0.044984937 0.08214781 -0.034818757
000010 61 b1 ae bd 04 12 60 3d 44 99 57 3d 84 c6 f5 3c
       -0.08529926 0.05470468 0.0526364 0.030001886
000020 34 a1 6a 3d 08 e4 98 3c 70 97 7e 3d d0 a5 a9 3d
       0.05728264 0.018663421 0.06215614 0.08283579
000030 30 33 b1 3c 96 05 85 3d a4 be ad 3d 1c da 87 3d
       0.021630853 0.06495206 0.084836274 0.06633398
000040 78 df 37 3d f4 c8 66 3d 00 54 50 3d d0 fe 15 3d
       0.04489085 0.056343988 0.05086136 0.03661996
000050 e5 2e a6 bd 8c 0b 8f bd 38 c1 76 3d 38 bb 59 bc
       -0.08114413 -0.06984624 0.06024286 -0.013289265
000060 71 d7 12 bd 2a 8b a1 bd 8e c5 ab 3d e5 94 89 bd
       -0.035849992 -0.078878716 0.0838729 -0.067178525
000070 20 02 8f 3c 5c ad 97 bc 68 93 8c 3d b0 74 d3 bb
       0.017457068 -0.018515281 0.06864053 -0.006453119
000080 0a f5 a7 3d 88 ff 53 3d cd a9 4b bd c0 30 ab ba
       0.08201034 0.051757365 -0.04972248 -0.0013060793
000090 61 f8 a5 bd fc 0f 8a 3d 00 d4 15 b9 d1 a7 af bd
       -0.08104015 0.0674133 -0.00014288723 -0.0857693
0000a0 c7 b8 2d bd 70 54 d1 3c e8 76 60 bd a9 e2 39 bd
       -0.042412546 0.025552958 -0.054800898 -0.045382176
0000b0 e0 e1 ec bc 41 ee 28 bd 32 e1 89 3d 90 6e 8a 3d
       -0.0289163 -0.04124284 0.06732406 0.067593694
0000c0 98 b8 fa bc 14 85 b0 bd 85 61 ad bd 7e ff 9d 3d
       -0.0306056 -0.08619133 -0.08465866 0.07714747
0000d0 94 0b 95 3c c6 f7 9a bd 5c a4 a5 3d 14 66 cd bc
       0.018193997 -0.0756679 0.0808799 -0.025073089
0000e0 12 7f 8a 3d 4c 45 e1 3c a6 09 82 3d a4 b6 67 3d
       0.06762518 0.027498864 0.063494965 0.056570664
0000f0 aa 94 9b 3d a0 90 d9 3c b8 00 8b 3d 46 37 9b bd
       0.07596715 0.02655822 0.067872465 -0.07578902
000100 d4 00 12 3d 96 bb 5b bd 3a d1 9a bd 10 9e 94 bd
       0.03564532 -0.053645693 -0.07559438 -0.072567105
000110 38 22 02 3d 7c ca ba 3c 72 a5 b3 bd 0c 24 44 3d
       0.031770915 0.02280163 -0.087717906 0.04788594
000120 e8 1b 91 3d e0 4b 10 3d 60 18 8e bd f0 41 af bc
       0.07085401 0.03522861 -0.06938243 -0.021393746
000130 ac 9b e1 3c cb 13 6e bd 40 e8 68 3d 5c 14 ab 3d
       0.02754005 -0.058124345 0.056862116 0.083534926
000140 02 b6 b7 3d b8 c4 a3 3d bc b9 82 bd 30 c1 1e 3c
       0.08970262 0.079965055 -0.06383082 0.009689614
000150 95 cb 0d bd 8b f4 81 bd 33 7d b7 bd cc 8a 8a 3c
       -0.03461798 -0.06345471 -0.08959427 0.016911887
000160 75 ac b3 bd c3 84 9a bd 92 eb 99 bd 68 9e 76 bd
       -0.08773128 -0.075448535 -0.075156346 -0.06020966
000170 38 1e 13 3d 2c e4 a8 3d 80 f1 ac 3a e2 7d f6 bc
       0.03591749 0.08246645 0.0013194531 -0.030089322
000180 24 92 3a 3d bd a0 47 bd cb 7c 85 bd 68 4c 4a 3d
       0.045549527 -0.048737276 -0.06517943 0.049389273
000190 f0 02 77 3d 70 76 ab bd 4c bf 98 bd 98 65 9d bc
       0.060305536 -0.083721995 -0.07458362 -0.019213483
0001a0 ce 9d af 3d aa 06 ae bd 24 fb fb 3c e1 aa ab bd
       0.08575021 -0.08497365 0.030759402 -0.08382202
0001b0 3c c5 8f bd e8 52 b4 bc a2 29 85 3d b8 a8 18 bc
       -0.07020041 -0.022012189 0.065020815 -0.009317569
0001c0 20 91 5b bc 54 b5 45 bd a0 5b 14 3b a0 07 70 bc
       -0.0134013 -0.04826863 0.002263762 -0.014650255
0001d0 b4 63 b8 bc 2b 47 89 bd d0 f7 92 3b 08 73 13 3c
       -0.02250848 -0.06703027 0.004485108 0.008999594
0001e0 4e 3a 72 bd 03 07 20 bd 70 98 2d 3c 06 c5 95 bd
       -0.059137635 -0.039069187 0.010595426 -0.0731297
0001f0 a8 6c 3e 3d 90 b4 1e bd f6 4d 9d bd 00 5c 24 3a
       0.04649034 -0.038746417 -0.076808855 0.00062698126
000200 b4 9b 32 3d 00 ed e8 3b 08 3f cd 3c e0 90 51 3d
       0.04360552 0.0071083307 0.02505447 0.051163554
000210 3f 70 30 bd 4e 90 aa bd 48 d9 04 3d f0 56 15 3c
       -0.043075796 -0.08328305 0.032433778 0.009114966
000220 ce c1 00 3d 5c f7 a7 3d 84 8e 1e 3d 88 53 e7 bc
       0.031434827 0.08201477 0.038710132 -0.028238073
000230 08 62 30 bd 6f 23 83 bd d4 03 b5 3d e2 25 95 bd
       -0.04306224 -0.06403243 0.08838621 -0.07282616
000240 0b 98 1d bd b8 47 4f 3d 94 69 76 3d 78 b2 c1 bc
       -0.038475078 0.050605506 0.06015928 -0.02364467
000250 96 5a 44 bd c8 dd 60 3d 68 7c 8d bd e0 fd c2 3c
       -0.047937952 0.054899007 -0.06908494 0.023802698
000260 7a 56 a7 bd 38 d5 b6 3c 33 d9 94 bd 50 b9 b7 bb
       -0.08170791 0.022318467 -0.0726799 -0.005606808
000270 e0 c1 55 bd a8 df 5f 3d c8 07 a6 bd 00 ae c4 ba
       -0.052186847 0.054656655 -0.08106953 -0.0015005469
000280 20 1d 00 bc 5a 6e 06 3d 0e 47 05 3d 4c e3 b7 3d
       -0.007819444 0.032820083 0.032538466 0.089789
000290 a4 ce a2 3d 8c 0f 96 bd 93 6c 61 bd e0 6c 54 bb
       0.0794957 -0.07327184 -0.055035185 -0.0032413527
0002a0 d8 73 86 bc b1 80 b4 bd dc 6c c3 3c 88 a7 8a bd
       -0.01641266 -0.088136084 0.02385562 -0.06770235
0002b0 d8 9c 3e 3c 14 e8 9b bc c0 6e cc 3c 14 7b f3 bc
       0.011634074 -0.019031562 0.024955153 -0.029721774
0002c0 e0 83 fb 3b 32 3a 91 bd d4 24 d7 bc 90 dd f2 bb
       0.007675633 -0.07091178 -0.026262678 -0.007411666
0002d0 04 f9 db bc c0 18 39 3d 00 97 40 ba 9c f6 12 3d
       -0.026852138 0.04518962 -0.00073467195 0.035879716
0002e0 c5 92 b8 bd 4c 6d 81 bd 84 19 b5 bc 58 55 46 bd
       -0.09012369 -0.06319675 -0.022106893 -0.048421234
0002f0 a5 71 5c bd 34 1b 09 3d 20 92 2e 3d 50 8c a0 bd
       -0.053819317 0.03347321 0.042619824 -0.078392625
000300 54 02 e2 bc 30 45 cc bc 76 5d 8b 3d e0 bd 71 bb
       -0.027589 -0.024935335 0.06804936 -0.0036886856
000310 5d 7a 92 bd 58 bc fb 3c f8 92 e2 bc aa 91 8e 3d
       -0.07152245 0.030729458 -0.02765797 0.06961377
000320 80 96 48 3d 9a 01 b0 bd 78 64 a8 bd b0 0c 96 bc
       0.048971653 -0.085940555 -0.08222288 -0.018316597
000330 f8 6d e1 bc c8 d3 d7 bc 8c 90 ad 3d 40 d4 79 3d
       -0.027518257 -0.026346102 0.08474836 0.060993433
000340 29 9d 3e bd b0 f5 48 3d 2c cd 74 3d 0e 88 aa bd
       -0.0465366 0.04906243 0.05976598 -0.083267316
000350 6c a5 4d 3d 1f e8 77 bd a4 08 19 3d 5d 79 98 bd
       0.050206587 -0.060524102 0.037361756 -0.07445023
000360 9b 07 a7 bd fa 94 09 3d 0e 2d a2 3d b4 0d aa 3d
       -0.081557475 0.03358934 0.0791875 0.08303395
000370 d0 45 ea 3c f0 76 63 bc 80 47 59 bc c8 0b 9e 3c
       0.028597742 -0.013883337 -0.013261676 0.019292727
000380 c0 59 c8 bc 9c dd bd bc 54 c9 87 3d ba e7 6b bd
       -0.024456859 -0.02317696 0.06630197 -0.05759404
000390 78 e6 20 bc 80 32 8d bb 08 ce 42 3d 7a 51 82 bd
       -0.009820573 -0.0043089986 0.047559768 -0.06363197
0003a0 01 87 b6 bd 50 e4 f2 bc 38 cb 93 3c dc 42 49 3d
       -0.08912469 -0.029649884 0.018041238 0.049136028
0003b0 10 50 96 3d f8 b4 2a bd f0 06 8f bc f6 79 46 bd
       0.073394895 -0.04167649 -0.017459363 -0.048456155
0003c0 67 a8 34 bd 1c a2 b4 bd 8e e4 aa 3d 80 8c 5f 3d
       -0.044105913 -0.088199824 0.083443746 0.05457735
0003d0 86 29 9e 3d 61 7a 61 bd 30 e7 cc 3c c4 e7 bf 3c
       0.07722764 -0.05504835 0.025012583 0.023425944
0003e0 bd c3 2c bd 1c 51 22 3d 5a 72 8d 3d 70 c3 25 3c
       -0.042178858 0.039628133 0.069065765 0.010117397
0003f0 a8 6a 5d 3c 78 fa ae bc e8 d1 72 bc 96 41 02 3d
       0.013514198 -0.021359667 -0.014820553 0.03180083

fc2.bias f4 [84]
000000 38 7b ad 3d b2 ad 2c bd 58 5b b7 bc 06 a1 88 3d
       0.08470768 -0.042157836 -0.022382423 0.06671338
000010 88 9c 8e 3d a4 f5 b6 3d 36 7f 38 bd 1c 80 39 3d
       0.0696345 0.08933571 -0.045043193 0.04528819
000020 4c 7b ba 3d fa 43 0d bd 47 4a b0 bd df 30 05 bd
       0.09105548 -0.034488656 -0.08607917 -0.03251731
000030 c7 58 31 bd 60 bf a9 bc 18 68 8e bd 50 88 08 3d
       -0.043297555 -0.020721138 -0.06953448 0.033333123
000040 a4 e7 a2 3d 00 82 ec 3c 55 56 4c bd 23 ce 8d bd
       0.07954338 0.028870583 -0.04988702 -0.06924083
000050 68 cc a0 3c 32 c1 5d bd e0 af 4c bd 30 97 9b bb
       0.019628718 -0.054139324 -0.049972415 -0.0047482476
000060 96 dc b9 3d 91 ab 23 bd 0e b6 a8 3d 45 69 92 bd
       0.090752766 -0.03995854 0.08237849 -0.07148985
000070 79 70 47 bd 74 ba aa bc 1e ce 07 3d ff 9e a1 bd
       -0.048691247 -0.02084086 0.033155553 -0.07891654
000080 5c 3c 0c bd b0 77 22 3c b1 35 04 bd 20 ee 86 3d
       -0.03423725 0.009916231 -0.032277767 0.065883875
000090 80 b3 5f 3d 84 e0 55 3d 59 ad 15 bd f0 fd 71 3c
       0.054614544 0.052216068 -0.03654227 0.014770016
0000a0 4a 4d 08 3d b4 de 9a bd fb f0 84 bd c4 36 92 bd
       0.033276834 -0.075620085 -0.06491276 -0.07139352
0000b0 76 61 54 bd db 11 87 bd 4a fd 7a bd f4 35 6b 3d
       -0.05185076 -0.065952025 -0.06127671 0.0574245
0000c0 fa ef 82 bd e0 60 9b 3d bd bf 3f bd a8 c6 aa 3d
       -0.06393428 0.07586837 -0.046813715 0.08338672
0000d0 a0 e7 5b 3b f8 c1 e2 3c 15 65 4a bd 50 00 b8 3d
       0.0033554807 0.027680382 -0.049412806 0.089844346
0000e0 3c 95 ac 3c d0 7f d0 3c dc 84 84 3d 7b b7 20 bd
       0.021067254 0.02545157 0.064706534 -0.03923748
0000f0 f4 e6 4d 3d 7f 11 b3 bd 25 2d 4a bd 16 d8 85 bd
       0.050269082 -0.087435715 -0.04935946 -0.06535356
000100 94 ed be 3c 80 00 71 3d 26 91 9d 3d ee a5 96 3d
       0.023306645 0.058838367 0.076937005 0.07355867
000110 46 6c b3 bd b0 8b 98 bb cc 67 aa bc 14 b8 dd 3c
       -0.08760886 -0.004655324 -0.020801447 0.027065314
000120 08 86 62 3d 20 51 33 bb a9 ad 1a bd 08 3b 6d 3c
       0.055303603 -0.0027361587 -0.03776327 0.014479406
000130 c4 29 9d bd 38 53 17 3d 58 2f 0d 3c 3e fb 94 3d
       -0.07673982 0.036944598 0.008617245 0.07274483
000140 2a 54 1e bd 38 da bb bc 78 80 7d 3d 28 6e 7d bc
       -0.038654484 -0.022931203 0.061890095 -0.015468158

fc3.weight f4 [10, 84]
000000 33 53 d4 3d 79 20 b6 3d 64 37 97 bc 4c 30 d6 bc
       0.103674315 0.088929124 -0.01845903 -0.026146077
000010 54 1b de 3c aa fc 68 3d 60 23 06 bb c6 00 a5 bd
       0.02711264 0.056881584 -0.0020467862 -0.08056788
000020 17 ff ab 3d d7 d8 87 bd 28 b0 f3 bc b2 a2 7c bd
       0.08398264 -0.06633156 -0.029747084 -0.061678596
000030 10 54 e4 bb 0e 3d 86 bd 97 00 cd 3d 1c 22 a2 bd
       -0.006968029 -0.06554614 0.10009878 -0.07916662
000040 54 4f f5 3c 65 d5 d7 3d 5a 4a 75 3d d0 59 a4 3b
       0.029945053 0.10538749 0.05988536 0.0050155893
000050 03 14 d3 3d 82 90 ac bd f9 aa dd 3d e8 f3 2b 3c
       0.10306551 -0.08426 0.10823626 0.0104951635
000060 80 e1 2a ba 03 24 c1 3d ea 7b 3b 3d 60 32 d1 3b
       -0.00065185875 0.09430697 0.04577247 0.006384179
000070 46 a4 77 3d 78 cd 0a bc af 26 dc 3d d6 a3 82 bd
       0.060459398 -0.008471839 0.10749566 -0.063789055
000080 00 e7 79 3c 26 39 c9 bd 26 1d 69 3d c7 21 de bd
       0.015252829 -0.09825353 0.056912564 -0.10846286
000090 8e 18 6e bd bc ab d8 bd e1 0d dd 3d 53 d6 80 3d
       -0.058128886 -0.10579631 0.10793663 0.06290879
0000a0 4a 13 2f 3d 4f bd 4b bd df 48 88 3d 1a 8f ae bd
       0.042743005 -0.049741086 0.06654524 -0.08523388
0000b0 c4 a7 cc 3c 9f 45 9e bd e2 44 3e bd 57 f6 91 3d
       0.02498234 -0.07728123 -0.04645241 0.07127064
0000c0 bb 88 98 3d b1 04 6f bd a3 52 ac 3d 54 f4 61 bd
       0.07447954 -0.058354083 0.08414199 -0.05516465
0000d0 e4 e2 cd 3c 02 06 98 bd cf b4 66 bd 19 14 91 3d
       0.025132604 -0.07423021 -0.056324776 0.070839114
0000e0 ff 88 ca 3d eb a6 d1 bd 43 db 89 3d f6 22 38 3d
       0.09889411 -0.10236915 0.06731274 0.044955216
0000f0 5b 9c ad bd b8 9d 52 bc 92 0b 9d bd 60 ae 41 bc
       -0.08477088 -0.012854986 -0.076682225 -0.011821359
000100 5a 66 7f 3d b6 44 87 bd 10 f8 82 bc 96 09 3c bd
       0.06235347 -0.066049024 -0.015987426 -0.04590758
000110 96 62 71 3d a0 66 b4 bb e8 84 00 bd d0 6d 19 bd
       0.05893191 -0.005505398 -0.03137675 -0.03745824
000120 20 dd 38 bb cc eb 88 3c 5a 0f 43 3d d6 52 4b 3d
       -0.0028207973 0.016714 0.047622062 0.049639545
000130 b0 cd 53 3c b2 f2 4b 3d 90 df b8 3b f6 a9 69 3d
       0.012927458 0.049792 0.005641885 0.057046853
000140 0c 4e e7 3c 40 a7 15 bd 9d ce cb 3d b7 9d ad 3d
       0.028235458 -0.036536455 0.09951518 0.08477347
000150 91 78 c1 bd 42 bd 20 3d 80 65 f3 ba f1 02 8d 3d
       -0.09446824 0.03924299 -0.0018569678 0.06885327
000160 38 c7 4b bc 00 99 1b bc 82 96 4a 3d c3 18 be 3d
       -0.012437634 -0.009496927 0.04945994 0.09282067
000170 45 e7 cd bd 88 ee e7 bc cb b7 c4 bd 7d 1f 86 3d
       -0.10053877 -0.028311983 -0.09605368 0.06548975
000180 4b 79 96 3d d8 85 43 bc 70 34 ad bb 48 78 5f bc
       0.073473535 -0.011933766 -0.005285792 -0.013639517
000190 7a 22 a6 bd 52 b0 91 bd f1 a6 9b bd 8c 63 a2 3c
       -0.08112045 -0.071137086 -0.07600201 0.019822858
0001a0 c9 26 9e 3d c7 78 a8 3d 1a 97 1e bd 88 b2 37 bd
       0.077222414 0.082261615 -0.03871832 -0.044847995
0001b0 03 2b 4e bd 77 39 54 bd 52 d6 43 3d 81 6b a4 3d
       -0.050333988 -0.051812615 0.047811814 0.08028317
0001c0 ff 6b bb 3d 37 96 d8 3d d1 29 b6 3d bb 1c b2 3d
       0.09151458 0.10575526 0.088946946 0.08696886
0001d0 00 e6 a1 3a 80 fa 2e 3b 60 fe 60 3b 99 0e ac 3d
       0.001235187 0.0026699603 0.0034331307 0.08401222
0001e0 22 0c 75 3d bc 9d 9f bc 95 22 8c 3d 68 c6 d3 bd
       0.059826024 -0.019484393 0.068425335 -0.10340577
0001f0 6c 1e f0 bc f1 86 b6 3d e5 a9 d4 bd 2f b1 b0 3d
       -0.029311381 0.08912457 -0.10383967 0.08627545
000200 39 d5 a7 3d 10 e5 73 bc ee 5c 0e 3d 82 a2 65 3d
       0.08194966 -0.014886156 0.034756593 0.056063183
000210 f3 4e 9b 3d a7 b6 9c 3d 82 06 43 3d 52 d1 b9 bd
       0.07583418 0.07652026 0.04761363 -0.09073128
000220 ec 77 c1 3c 2a 5f 5c bd db 67 c9 3d 00 24 27 3c
       0.023616754 -0.053801693 0.09834262 0.010201454
000230 a2 d1 d7 bd 40 5d a0 bc 33 27 48 bd 70 c3 8c bd
       -0.10538031 -0.019575715 -0.04886551 -0.06873214
000240 d6 6d 61 3d d8 6a 88 bd 95 79 b1 3d 75 8a a6 bd
       0.05503639 -0.06661004 0.08665768 -0.08131877
000250 e3 d6 97 bd 8b ac bb bd 0c 53 ba bc 9a ca 31 3d
       -0.07414033 -0.09163769 -0.022744678 0.043406107
000260 24 ce dd 3c cd 10 df bd d2 c2 38 bd 17 c7 cd bd
       0.027075835 -0.10891876 -0.04510767 -0.10047739
000270 82 cc a4 bd d2 d2 7a bd af 82 b6 3d 2b 1b a4 3d
       -0.08046819 -0.06123621 0.08911645 0.080129944
000280 de b8 3d bd 04 27 ce bc fe 94 77 3d 7e 6b 4e 3d
       -0.04631888 -0.025165088 0.060444824 0.05039548
000290 b5 cf c6 3d 58 1a 07 bc 18 53 05 bc 35 f1 be 3d
       0.09707586 -0.008246027 -0.008137487 0.0932335
0002a0 2e 07 5a 3d 5b aa 84 bd a8 aa c8 bd 41 8a a9 3d
       0.053229503 -0.06477805 -0.09798175 0.08278323
0002b0 42 cb 62 3d 68 e5 01 bd f0 1a 46 bc 10 78 07 bc
       0.055369623 -0.03171292 -0.012091383 -0.008268371
0002c0 fe 8a b0 bd 1c 1d 2c bd a2 41 2b 3d d4 d1 82 bd
       -0.08620261 -0.04201995 0.04181064 -0.06387678
0002d0 da a1 50 3d 86 5d 04 3d 8a e0 61 3d a7 c9 8e bd
       0.050935604 0.032315753 0.055145778 -0.06972056
0002e0 13 69 a0 3d 51 8e b0 3d e5 af d9 3d d4 f6 ff 3c
       0.07832541 0.08620895 0.10629252 0.031245627
0002f0 53 f7 8d bd f8 e7 64 3c c5 ea c7 3d 54 fd be bd
       -0.06931939 0.013971321 0.097615756 -0.09325662
000300 a4 38 f8 3c 53 7e d2 3d d8 dd 2a bd 58 fc 02 bc
       0.030300446 0.10278001 -0.041715473 -0.007994734
000310 55 52 b4 bd 80 a1 af ba 99 b7 a2 3d ae f1 58 bd
       -0.08804766 -0.0013399571 0.07945175 -0.05296486
000320 5f 0b 49 bd cc ee bb bc 64 9a a6 bc aa 80 59 3d
       -0.04908311 -0.022941016 -0.020337291 0.05310122
000330 a8 c7 1d bd 1e 59 27 3d 16 a1 17 3d 3d 2f 84 3d
       -0.038520485 0.040856473 0.037018858 0.064543225
000340 59 9d a4 3d 8c b4 9a 3c ac 4e c9 3c 82 9f 18 3d
       0.08037824 0.01888492 0.024573646 0.037261494
000350 6e 64 89 bd 53 69 ad 3d fd c2 a0 bd 0c 0d 9c 3c
       -0.067086086 0.084673546 -0.07849691 0.01904919
000360 81 6c ae 3d 85 56 cf 3d 19 74 a7 3d 00 86 e9 bc
       0.08516789 0.10123924 0.08176441 -0.028506279
000370 00 44 d1 39 6e 57 0b 3d 41 b8 89 3d 62 41 74 3d
       0.0003991425 0.034018926 0.06724597 0.059632666
000380 bc e2 8c 3c b2 1a 30 bd 58 51 d9 bc 8c 53 1a bd
       0.01719796 -0.04299421 -0.026528046 -0.037677333
000390 07 03 c3 3d a0 2d a4 bb 47 59 8d 3d 2c fd 98 3c
       0.09522062 -0.0050103217 0.06901794 0.01867541
0003a0 41 13 bb 3d 55 f4 a1 3d 6a ef 1c bd 70 15 5d bc
       0.09134532 0.07907931 -0.03831426 -0.013493881
0003b0 53 d1 bc bd 4e 4d 2e 3d e1 e7 ba 3d 90 07 9a bc
       -0.09219613 0.042554192 0.09126259 -0.018802434
0003c0 50 4c 8b 3b 19 3a ad 3d ea 10 91 bd a8 ed dd bc
       0.0042510405 0.08458347 -0.07083304 -0.027090862
0003d0 c4 4d 8c 3c 00 5c 5e 3c e0 26 fd 3b bc da 86 3c
       0.017126925 0.013571739 0.0077255815 0.016461723
0003e0 78 21 71 3c 24 de c0 3c 25 c1 4e bd 41 a0 84 3d
       0.014717452 0.023543425 -0.050477166 0.064758785
0003f0 19 0f cd bd 6d 71 8e 3d 93 c1 59 bd 40 3d a8 bb
       -0.10012645 0.06955228 -0.053163122 -0.0051342547

fc3.bias f4 [10]
000000 01 bb dd 3d 20 69 0b 3b 58 ff c6 bc 0e 47 49 3d
       0.10826684 0.0021272376 -0.02429168 0.04914003
000010 36 87 2e 3d 5d da 86 3d 52 a7 36 3d 72 b7 09 3d
       0.042609416 0.06584618 0.044593163 0.033622213
000020 43 c6 94 3d e2 53 3d 3d
       0.07264378 0.046222575
