cifar_net.pth (torch, 251167 bytes, 10 tensors)

conv1.weight f4 [6, 3, 5, 5]
00000000: aa01 dabd 14a4 3c3d 6154 e6bd 4dd6 e2bd
00000010: 5826 113d bab9 12bd a224 5bbd ca04 b9bd
00000020: 4ab8 33bd 9672 bcbd dc6f af3d 24ab 10bd
00000030: 42a6 babd 5c54 0ebd 52aa 893d ece1 3c3d
00000040: 141d 8bbc 1f83 80bd 389c dc3c 0ac2 2cbd
00000050: 64a4 d63d 3e04 a8bd 4ca4 e73d bc65 d53d
00000060: 6832 a0bc 4406 963d 1c28 b03d f0b7 a1bd
00000070: beaf 933d b0b3 6b3c 72cd 853d 4882 693d
00000080: dce5 c53d 48db 19bc d691 813d 78e8 43bd
00000090: 8806 86bd 2141 cdbd e523 8abd 8260 8a3d
000000a0: d760 5fbd 72a9 bb3d 6293 95bd 9685 83bd
000000b0: cc74 02bd 3eaf b5bd 80fb cb3d a04b 763c
000000c0: 8827 db3d c076 c73c 60b5 183d 7032 873c
000000d0: 282f 4cbd 7800 d63c 4820 6dbc 327a 9dbd
000000e0: b0f5 ddbb 90d0 7e3d 2564 b0bd a659 83bd
000000f0: b871 153d 9826 6e3d 90d9 5e3c 10fb 043c
00000100: a2b2 babd 6241 ba3d 5e68 7abd c00c b5bc
00000110: 6021 5e3c a60d b1bd 3f46 cbbd fc43 e23d
00000120: 3285 af3d 1022 963c 300d 713c 2097 8e3c
00000130: ac24 893d 466d 71bd 5e3e b33d 7ccd 5d3d
00000140: 2827 b53d dcb6 5c3d 0042 853d e231 b33d
00000150: 627d a33d 4026 493d 5fb8 e7bd bed9 a43d
00000160: 9a97 95bd c075 2f3d 5048 17bd 9aa8 9e3d
00000170: 5826 be3d 4c8b df3d 700b f03c e84f 833c
00000180: bc94 ea3d 3886 d43d 36b3 33bd 5cd1 c63d
00000190: d0ac d53b 3c2d cabd ba4d dd3d 68b1 a03c
000001a0: 4032 403b 2095 5d3b 0f87 7dbd 84da 73bd
000001b0: 16b3 823d 0a38 df3d 70a2 913d 1083 7e3c
000001c0: 6978 c1bd 4077 50bc 92a8 1cbd b6ec 66bd
000001d0: 9cc9 29bd b0a0 82bd eeba ad3d 26c1 e33d
000001e0: 385b 96bc 22f3 61bd 209a 313b e482 83bd
000001f0: 0227 5dbd 8883 8f3d 516b 90bd 3092 bc3c
00000200: e4bb 2e3d aff0 c7bd 22c3 c2bd 6490 93bd
00000210: 7a54 abbd b0bb c83d 910c cebd 5c9b 8cbc
00000220: 6a0f 963d 1891 073d 7e8d 99bd 4ebc 6fbd
00000230: 2cdf 203d c8a8 a63d 4844 9ebd 8242 e23d
00000240: b419 81bd 0563 97bd 2c62 b1bd 6869 393d
00000250: 32a4 8dbd 2e2d c03d 4045 b83a 5075 cabc
00000260: 2869 78bc d8d4 003d 30da a2bd 12cd ca3d
00000270: d657 94bd fefc b9bd 2ee4 8fbd 4e5e a83d
00000280: 84f9 a3bd 3c1b a2bd e0a9 6f3c 2cfb 2bbd
00000290: d0a8 c83c 68db 4dbd d8bf 913c 9980 bdbd
000002a0: d81c 37bc 466a 893d 2ce7 97bc fc55 c1bd
000002b0: 8019 fb3b 9258 7dbd d80d a4bd 8010 573c
000002c0: 34e7 d03d 4e8d 85bd a00f 673c 52f2 4ebd
000002d0: f040 e03b 6a5e da3d de61 0ebd e436 43bd
000002e0: 8e98 9fbd 8262 a1bd 0baf b4bd 1e74 953d
000002f0: a60e a33d d0ac b53d b4fc 643d 04d1 9e3d
00000300: 6cef 703d c8c2 c83c f521 b5bd b0d9 8cbc
00000310: 8210 abbd 0080 24b6 a244 2fbd 4a3f bfbd
00000320: 5c48 223d 1a00 a23d de38 e43d d54b c3bd
00000330: e08c 353d 3428 a1bc ca71 a13d 74d9 f3bc
00000340: 1a9a eb3d 666f 8abd 3e9e e83d 42f7 ba3d
00000350: b443 563d a8ca 98bd 8462 783d f088 423c
00000360: 60ab fb3c c8af 923d 50c6 823d d8c3 873c
00000370: a0db 673d c738 bfbd 10a7 debd 894e aebd
00000380: 162f b8bd 0069 84bd 9aae bc3d 13bc 95bd
00000390: 38a6 5dbc aca7 d53d cc93 d73d d0ea a9bd
000003a0: 10fa af3c 2063 75bb 3053 b13b b6f6 83bd
000003b0: 78de 9f3d c882 043d 439b 85bd 7ed8 9b3d
000003c0: 802f 39ba c497 83bd 4076 f5bc 3a78 a63d
000003d0: 808a d23c 7057 58bd a488 1e3d 3024 253c
000003e0: 909b 8b3c 0021 e0ba 3089 d73d 204b c93d
000003f0: 5c25 d5bd 2c3d e0bd 161a 2ebd 30ce cebd
-0.10644849 0.046054915 -0.11246563 -0.11076031 0.035436958 -0.035821654 -0.053501733 -0.090341166
-0.043876924 -0.09201543 0.08566257 -0.035319462 -0.091137424 -0.03474842 0.06721939 0.046113893
-0.016981639 -0.06275009 0.02692996 -0.042177238 0.10480574 -0.08203934 0.11310634 0.10419795
-0.019555286 0.07325414 0.086014 -0.078964114 0.072112545 0.014386103 0.06533326 0.05700901
0.09662983 -0.00939066 0.06326644 -0.04782912 -0.065442145 -0.10022188 -0.067451276 0.06756689
-0.054535713 0.091631785 -0.07303502 -0.06421964 -0.031849667 -0.088713154 0.09960079 0.015032679
0.10700899 0.024348617 0.037282348 0.016503543 -0.04984966 0.02612327 -0.0144730285 -0.076893225
-0.006773673 0.06221062 -0.08612851 -0.064135835 0.036485404 0.058142275 0.013601676 0.008116499
-0.09116103 0.09094502 -0.06113469 -0.022100806 0.013557762 -0.08645181 -0.09925508 0.11048123
0.08570327 0.01832679 0.014712617 0.017406046 0.06696448 -0.058942102 0.0875213 0.054151043
0.08845359 0.053885326 0.06506729 0.08749749 0.07982899 0.049108744 -0.11314463 0.080493435
-0.07304306 0.042836905 -0.036934197 0.07747002 0.09284657 0.10915241 0.029302329 0.016029313
0.1145415 0.10377163 -0.04387208 0.09707901 0.006520845 -0.09871909 0.10805841 0.019615844
0.0029326826 0.003381081 -0.06189638 -0.059534565 0.06381814 0.108993605 0.071110606 0.015534177
-0.094467945 -0.012723744 -0.0382467 -0.05637809 -0.041452035 -0.06378305 0.0848292 0.111208245
-0.018354043 -0.05516351 0.0027099922 -0.0642145 -0.05399228 0.070075095 -0.07051719 0.023018926
0.042659655 -0.097627036 -0.09509875 -0.07205275 -0.08365722 0.098014235 -0.100609906 -0.017163925
0.07327159 0.033097357 -0.074976906 -0.05852919 0.039275333 0.08137661 -0.07727867 0.110478416
-0.063037306 -0.07391933 -0.08661303 0.04526654 -0.069160834 0.09383617 0.0014058724 -0.024714142
-0.01516179 0.031452984 -0.07951772 0.09902395 -0.07243316 -0.090814576 -0.07025944 0.08221112
-0.08006576 -0.07915351 0.014627904 -0.041987583 0.024494559 -0.05025807 0.017791674 -0.09253044
-0.0111763105 0.06709723 -0.018542849 -0.09440228 0.007662952 -0.061852045 -0.08010453 0.0131264925
0.102003485 -0.06521092 0.014102846 -0.050524063 0.0068436787 0.10662539 -0.034761302 -0.04765977
-0.07792769 -0.07880117 -0.08822449 0.07297538 0.07961778 0.08870852 0.05590506 0.0775471
0.05882208 0.024506941 -0.088443674 -0.017193645 -0.08352758 -2.451241e-06 -0.042790063 -0.09338243
0.03961979 0.079101756 0.11143659 -0.09535948 0.044323802 -0.01967249 0.07883032 -0.029766776
0.11504002 -0.06759529 0.11358307 0.09129192 0.05231066 -0.074605286 0.060640827 0.011873469
0.030721366 0.07162434 0.06385481 0.016572878 0.056605935 -0.09337001 -0.108717084 -0.08511073
-0.08993356 -0.0646534 0.0921299 -0.07311263 -0.013528399 0.104323715 0.10526237 -0.0829674
0.021481544 -0.0037443116 0.005411528 -0.06443541 0.078061044 0.032351285 -0.065237544 0.07609652
-0.0007064268 -0.06425431 -0.029963613 0.081284 0.025700808 -0.052817762 0.03870453 0.010079429
0.017041951 -0.0017099679 0.10524213 0.09828782 -0.10407516 -0.109491676 -0.042505346 -0.10097921

conv1.bias f4 [6]
00000000: f8ed 463d 4846 3f3d 7836 c1bd 9451 1a3d
00000010: 72aa e4bd c528 cebd
0.04856679 0.046697885 -0.09434217 0.037675455 -0.11165322 -0.1006637

conv2.weight f4 [16, 6, 5, 5]
00000000: c7e6 0fbd 40d3 33bc 389f 1d3d 54d6 93bd
00000010: 74cb 62bd b0e3 573c 66a5 73bd 3762 59bd
00000020: 5c8c f23c f0ea e63b 77ac 6fbd 000b f039
00000030: 10cf 333d 5fe5 7fbd da15 243d 5a27 bdbc
00000040: bc83 473d 5c50 823d c08b b2ba 0c3b b33c
00000050: b468 8fbc 8bf0 93bd faeb 42bd dcde e43c
00000060: 2c7f 5abd 5817 673d 50f1 443d bb47 95bd
00000070: d035 473d fc0a 623d 93b6 a6bd 8098 c7bb
00000080: 0cfd 4c3d 3de3 81bd 5471 713d 7299 87bd
00000090: be3e 8d3d 4c75 5e3d 1a54 9ebd ce9b e9bc
000000a0: 0042 79bc b47f 153d 9065 993d 3a49 9d3d
000000b0: 4067 363d a8ac 09bd 8084 8e3b 4493 90bd
000000c0: 543b 1abd fa84 2cbd f427 633d acaa a0bc
000000d0: 84a6 6cbd 325f 8d3d f0a2 d53c 84fe 84bd
000000e0: 50cf 8d3c 702a 843d a080 7a3b f05b 763d
000000f0: 1c34 8ebc f030 9c3d ba22 2fbd 0083 b33a
00000100: f8b0 233c c018 dd3a 8814 39bc 8a30 2cbd
00000110: 9c53 0d3d f4e1 e73c c654 a53d ca9f 883d
00000120: 1cb0 a6bd c438 b03c 80bd 723d a43e d13c
00000130: 38fb 3f3d c2e0 c2bc a7a1 03bd 987d 6ebd
00000140: 695e 8fbd c097 fe3a e04b e13c 68b8 d73c
00000150: d6a8 2abd 5a5f 21bd b0ef 6cbd 04af 36bd
00000160: 00d2 8439 6474 5a3d 72cb 68bd 0c45 a9bc
00000170: 0c7e 2c3d 2c0c 433d 3086 753d f4f3 733d
00000180: 5868 49bc 52b5 98bd d2e9 2c3d 8228 223d
00000190: b8c7 69bd 503b 1cbd 9021 5cbd 44dd 19bd
000001a0: 421c a63d 8b73 5dbd 7c91 5c3d 88e8 4b3d
000001b0: aa34 9d3d 60b4 e9bb 988f 15bc f9e6 49bd
000001c0: a2e8 5bbd 68c2 073d 20ab 28bb 37b5 29bd
000001d0: 4e5f 193d c8e0 4abc 90e5 dabb 9272 9c3d
000001e0: c03b 7bbb 8054 853d d000 4c3d 70e3 993d
000001f0: 884b 5c3d 84cb 9bbc 22b3 5fbd faf8 2bbd
00000200: 1e46 92bd a821 9f3d 8552 43bd 009b cf39
00000210: 241e bebc 8bcc 4cbd f0f4 c5bb 1687 9d3d
00000220: 2851 843d 4cd0 363d 7845 edbc b8f2 78bc
00000230: 48ce 47bc 80c5 20bd 6a12 8a3d 0c9c 5bbd
00000240: 6cdf a73c e08c 5cbb 43a2 2abd f001 963c
00000250: 3fdc 08bd f6b6 d6bc f24f 43bd 0850 4cbc
00000260: bce0 853c 429e 853d c2d6 9cbd 885f bf3c
00000270: 2b7e 88bd 2c99 5bbd ca0f 2dbd 40f0 ffba
00000280: ac88 90bd a8c3 32bd ccd7 a03c d04a b6bb
00000290: 51e0 07bd 5c5b 5c3d b03b 613d 98cc 08bc
000002a0: 7a1c a63d 2eb1 843d 5054 ea3b 44db 833d
000002b0: 924b 76bd 40ce 313d 2064 253d 6a3c 8dbd
000002c0: a0de 4e3c c95d 99bd 1b0a 5ebd d8be 433d
000002d0: 3cc3 943c 1e29 153d e2f3 0cbd d02c 97bc
000002e0: 885a 70bd 0083 0ebb 7285 933d 3276 b1bc
000002f0: aef6 6cbd ee05 05bd 60c5 e2bc b442 a43c
00000300: 8427 a43d 166b 05bd a4af 95bd 74ea 113d
00000310: 9a5d 29bd 808f de3c c11e 86bd 6ebf 963d
00000320: 9a01 163d 7b54 84bd 8003 e13b 78d5 8fbc
00000330: 4c24 f83c fec1 893d 60ce a53b 0330 18bd
00000340: 581d 12bd c8d8 e3bc 501a fdbc 1250 a43d
00000350: 877a 8ebd 8448 723d 80d4 19bd 21c8 76bd
00000360: 0485 9cbc 1b8f 92bd 6811 353d 4034 70bc
00000370: afaf 02bd f010 ee3c 9e92 8a3d b170 84bd
00000380: aaab abbc bc2b a6bd dc1e 9bbc b842 7a3d
00000390: 7409 723d b007 58bc 8c6a 7d3d a820 e6bc
000003a0: 0e46 163d de76 6dbd da84 72bd 080b db3c
000003b0: 14b6 eebc eb53 70bd 6ce3 303d fca0 823c
000003c0: 807f 5ebd d02b a93c 8e24 1a3d 6075 53bb
000003d0: 008b 093c 84da 13bd 78f3 003d de88 bcbc
000003e0: b537 2dbd da7b 273d 2055 f3bb 2062 1cbd
000003f0: f89e 873d 803f 513d 1edd a2bd 60d9 54bb
-0.035132196 -0.010975659 0.03848192 -0.07218614 -0.05536981 0.0131768435 -0.059483908 -0.05307218
0.029607944 0.0070470497 -0.058514085 0.00045784563 0.043898642 -0.062474605 0.0400599 -0.023090053
0.048709616 0.063629836 -0.0013621971 0.021878742 -0.017505981 -0.07223614 -0.047588326 0.027938299
-0.053343937 0.056418747 0.048081696 -0.07289072 0.048635304 0.055186257 -0.08140292 -0.0060911775
0.05004601 -0.063421704 0.05894597 -0.06621064 0.06896733 0.05431108 -0.07730885 -0.028516676
-0.0152134895 0.03649874 0.07490075 0.076799825 0.04453206 -0.033611923 0.0043492913 -0.07059339
-0.037654236 -0.042119004 0.055458024 -0.019612633 -0.05777599 0.06902923 0.026078671 -0.064938575
0.017310768 0.06453407 0.003822364 0.060146272 -0.017358832 0.076265216 -0.042757727 0.0013695657
0.009990923 0.0016868338 -0.011296399 -0.042038478 0.034503564 0.028305985 0.0807281 0.06671102
-0.08139059 0.021511443 0.059262753 0.025542565 0.04687044 -0.023788814 -0.032136586 -0.058225244
-0.07000429 0.0019423887 0.027502 0.026333049 -0.04166492 -0.039397575 -0.05784577 -0.0446005
0.00025333464 0.053333655 -0.056834646 -0.020662807 0.042112395 0.04761903 0.059942424 0.059558824
-0.012292944 -0.07456459 0.042215176 0.039589413 -0.057075232 -0.038142502 -0.053742945 -0.03756453
0.081108585 -0.05406527 0.053849682 0.049782306 0.076760605 -0.007132098 -0.009128474 -0.04929254
-0.053688653 0.033144385 -0.0025736764 -0.041432586 0.037444405 -0.012382694 -0.006680198 0.0763904
-0.0038335174 0.06510258 0.049805462 0.075140834 0.05378297 -0.019017942 -0.054614194 -0.04198549
-0.0714228 0.07770091 -0.04768612 0.000395976 -0.023207732 -0.049999755 -0.0060411617 0.07691781
0.06460792 0.04463224 -0.02896379 -0.015194587 -0.012195177 -0.03925085 0.067417935 -0.053615615
0.020492278 -0.0033653304 -0.04165865 0.01831147 -0.033413168 -0.02621029 -0.047683664 -0.012470253
0.016342513 0.06524326 -0.07658149 0.023360983 -0.0666469 -0.053612873 -0.042251386 -0.0019526556
-0.07057318 -0.043643624 0.01963415 -0.0055631176 -0.03317291 0.053798065 0.054988563 -0.00834956
0.081109 0.06479107 0.007151164 0.06438306 -0.060130663 0.043409586 0.04037869 -0.06896289
0.01262632 -0.07488591 -0.054208856 0.047789425 0.018159501 0.036416166 -0.034412272 -0.018453985
-0.058680087 -0.0021745563 0.07203187 -0.021662805 -0.05785244 -0.032476358 -0.027682006 0.020051338
0.080153495 -0.03257283 -0.073088914 0.035623983 -0.04134903 0.027168036 -0.065488346 0.07360731
0.03662262 -0.06461426 0.0068668723 -0.017557845 0.030290745 0.06726454 0.005060002 -0.037155163
-0.035672516 -0.02781333 -0.030896336 0.08023085 -0.06956964 0.059151188 -0.03755617 -0.06024945
-0.019106396 -0.071562015 0.044206053 -0.014660895 -0.031905826 0.02906081 0.06766246 -0.06466807
-0.02095588 -0.081138104 -0.018935613 0.061098784 0.059091046 -0.013185427 0.06186919 -0.028091744
0.036687903 -0.05797469 -0.05920873 0.026738659 -0.029139556 -0.05867378 0.043185636 0.015945904
-0.054320812 0.020650774 0.037632518 -0.0032266006 0.008394957 -0.036097065 0.03148219 -0.023014482
-0.042289454 0.0408896 -0.007425919 -0.038179517 0.06622118 0.05108595 -0.07952331 -0.0032478198

conv2.bias f4 [16]
00000000: 6442 e53c f086 a4bd e2c3 bcbc 888d 573d
00000010: c009 83bc 1829 353c 705a f4bb 62c8 76bd
00000020: ecaf 3f3d 1245 71bd 4e36 a0bd d267 6cbd
00000030: 04b0 473d 3829 483d 8f8b 09bd ba05 a4bc
0.02798576 -0.0803355 -0.023042623 0.05262521 -0.01599586 0.011057161 -0.00745707 -0.060249694
0.04679863 -0.05890376 -0.07822858 -0.0577162 0.048751846 0.048867434 -0.03358036 -0.020022262

fc1.weight f4 [120, 400]
00000000: 80cc 49bd d1de 003d 09ce 0e3d 588c 10bd
00000010: a0f2 5a3b a6da 18bd 129c 9b3c 58cc fb3b
00000020: a22e c43c 7b1d 323d 301b 493b 20e3 4a3b
00000030: ff68 173d 8244 b03c 182a c8bb b3e8 053d
00000040: eadc c43c c363 413d f8aa 1dbd 00aa 5f3b
00000050: 3e29 f43c 29ec 173d d69d 923c 54b7 2f3c
00000060: 6750 0b3d f715 46bd ddab d3bc bd63 2d3d
00000070: e8db 43bc daf7 8b3c aa1f f83c c593 32bd
00000080: b55c 02bd 5551 2f3d ac01 7c3c 784e 5fbc
00000090: 3208 1cbd cf2a 47bd b205 973c 231c 253d
000000a0: cd6f 283d 283f 08bd 4cb5 6c3c 4e5b fa3c
000000b0: 2bd4 42bd 0e30 09bd 14ff 4cbc 8122 2d3d
000000c0: d0a8 75bb 9de1 463d f403 73bc 308e 883b
000000d0: e2d2 8b3c 61eb 153d bd05 0fbd c290 8b3c
000000e0: f204 b53c 78aa 313c 085a 11bd 803f ad3b
000000f0: c0e8 e9bc 7145 343d 2a44 d7bc 1e44 0abd
00000100: 2a3e 9bbc 407b 54bc 9da4 42bd 1cb6 09bd
00000110: 1622 f03c d039 c4bc 02ed 863c 726e d03c
00000120: 67b3 383d ea2d dfbc be09 ef3c b34b 413d
00000130: 8032 3c3c 20ef afbc 1305 453d f776 2f3d
00000140: d2f3 ae3c 1825 46bc 8853 3ebd 9607 24bd
00000150: 5839 913b 26c1 09bd d09c 08bb d083 71bb
00000160: 1850 9fbb 12ec 883c 0064 5d3b fa7a fa3c
00000170: 811c 183d 529a cd3c 7a3b 2ebd e00b 353b
00000180: 78ea 4b3c 8f08 273d 4ea3 9c3c 10f6 dfbc
00000190: b8d3 43bd 163c 2cbd ba3d 27bd e03f 4fbc
000001a0: e023 063c 50ed b53b f077 c73b 2604 a73c
000001b0: 6239 bb3c 0069 c33a 4041 093a a0c8 09bc
000001c0: c4ee 593c 4333 aebc 00ab cfb9 a890 2a3c
000001d0: 5d74 9fbc 316b 053d ce02 24bd fb30 343d
000001e0: a031 5ebc 4a68 b0bc 7d43 09bd b7e8 adbc
000001f0: 98c6 973b e845 f83b 00a9 c7bc 31a0 383d
00000200: 8cc3 413c 6066 7dbc ccf9 4e3c 158d 043d
00000210: c3f3 b0bc 18d7 e93b e8b9 76bc 3bea 093d
00000220: be6d e73c 3fa6 153d d0de f33b 0064 3f3a
00000230: e308 2e3d 8c0f 84bc 6d6d 2fbd 3027 46bb
00000240: 9aa2 f73c fd91 323d 0150 3d3d 7789 ecbc
00000250: e67e 96bc 7273 0ebd ff00 023d 74ac 7d3c
00000260: 301e 95bb 701a 8ebc cd11 23bd 42ac a93c
00000270: 7ef5 893c 1772 f0bc e59a 283d c06b c3ba
00000280: 949d 80bc 0a60 3bbd b096 1cbb c711 d8bc
00000290: 800d c1b9 b490 203c c39a 483d 38d2 1cbc
000002a0: 6097 b9bc 74cb 3fbc 6dc5 e8bc ada4 cdbc
000002b0: fa9c 3abd 74a2 12bc b0d4 afbb d856 cf3b
000002c0: 18b0 f0bb e971 2a3d ce79 fc3c 3921 423d
000002d0: 806f 3cbc f454 1d3c 4e0d ad3c 2faf 383d
000002e0: 4575 31bd a4f9 4e3c a7d4 2dbd 4d44 31bd
000002f0: 72ab ab3c a817 ea3b ac92 41bc e371 9ebc
00000300: 98f0 87bb b21b ec3c 79a5 083d bb26 453d
00000310: 6b62 0a3d 80f3 8e3b 5609 e63c 2088 b0bc
00000320: a109 343d 2924 2f3d 7d16 a4bc 08cc 0fbd
00000330: e06d 01bd 8d8a ecbc 0c58 273c 9eb0 fb3c
00000340: ba3f 89bc f684 8bbc 7774 9cbc 6091 13bc
00000350: 8098 04bb e9cb 0f3d 2f38 4a3d 4895 11bd
00000360: 06cd dc3c 5771 0f3d 9a8c e33c f45a 2ebc
00000370: 46b8 13bd 589a 7fbc 7943 2a3d 8c0e 473c
00000380: 62ca e13c feb8 ee3c fda9 9ebc c1f8 053d
00000390: 0059 80ba 824b 853c 3eb5 ce3c 80e4 4abb
000003a0: fe67 16bd d4e8 5bbc b328 3b3d d29f 35bd
000003b0: 30b0 8e3b 4890 0fbd 5f47 023d 6a73 3dbd
000003c0: c57c 03bd 3cd5 583c 5b86 12bd 18ca ef3b
000003d0: fb1c 323d d710 48bd ecdd 173c 3860 26bd
000003e0: f2a2 2fbd 730d 1e3d a0fb aabc 7293 a93c
000003f0: 70df 06bd 953f 32bd 2e54 af3c 7d3a 46bd
-0.049267292 0.031462494 0.03486446 -0.035290092 0.0033408776 -0.037317894 0.018995319 0.007684272
0.023948018 0.043485146 0.003068637 0.003095813 0.036965366 0.021517042 -0.0061085336 0.032692622
0.024031121 0.04721428 -0.038493127 0.0034128428 0.029804822 0.037090454 0.017897528 0.010724861
0.034012225 -0.04836079 -0.025838787 0.042331446 -0.011954285 0.017085958 0.030288536 -0.043597955
-0.031826694 0.042802174 0.015381258 -0.013629548 -0.038093753 -0.04862481 0.018435333 0.040310036
0.041122247 -0.033263355 0.014447521 0.030561116 -0.04756562 -0.033493094 -0.012511987 0.042269234
-0.0037484653 0.048555005 -0.0148324855 0.0041673407 0.01706833 0.036601428 -0.03491758 0.0170368
0.022097085 0.010843866 -0.03548625 0.005287111 -0.028553367 0.044011537 -0.02627762 -0.033756368
-0.01895054 -0.012968838 -0.04752027 -0.03362094 0.029313128 -0.023953348 0.016470436 0.02544329
0.045092966 -0.027243573 0.02917945 0.047191333 0.0114866495 -0.021476328 0.048100542 0.042838063
0.021356497 -0.012093805 -0.04646638 -0.040046297 0.0044318847 -0.033631466 -0.002084542 -0.0036852248
-0.004861843 0.01671413 0.0033781528 0.030576218 0.03713656 0.025098 -0.04253719 0.0027625486
0.012446038 0.040779646 0.019120838 -0.027339011 -0.047809333 -0.04204949 -0.04083035 -0.012649506
0.008187264 0.0055519715 0.0060872957 0.02038772 0.02285451 0.0014908612 0.0005235858 -0.008409649
0.013301555 -0.021264678 -0.00039609522 0.010410465 -0.019464666 0.03257293 -0.040041737 0.043992024
-0.013561636 -0.021534104 -0.033511627 -0.021229131 0.0046318285 0.007576693 -0.024372578 0.045074645
0.011826407 -0.015466303 0.012632798 0.03236111 -0.02160061 0.007136237 -0.015058972 0.033670645
0.028250571 0.036535498 0.007442333 0.0007300973 0.042488944 -0.016120695 -0.042828966 -0.003023576
0.030228902 0.043596257 0.046218876 -0.028874142 -0.018371057 -0.034778066 0.03173923 0.015483011
-0.004550718 -0.01734659 -0.039811898 0.020712022 0.016840693 -0.029351277 0.041163344 -0.0014909431
-0.01570014 -0.045745887 -0.0023893528 -0.026375664 -0.00036821887 0.009800125 0.048975717 -0.009571604
-0.022655189 -0.011706222 -0.028414452 -0.025102938 -0.04555986 -0.008949865 -0.0053659305 0.0063274913
-0.0073452108 0.04161254 0.0308198 0.047394965 -0.011501193 0.009602774 0.021124508 0.045088943
-0.043324728 0.012632761 -0.04243913 -0.043278027 0.020955775 0.0071439333 -0.011814754 -0.019341415
-0.004148554 0.0288218 0.033360932 0.04813264 0.033785265 0.0043625236 0.028080624 -0.021549284
0.043954495 0.042759094 -0.020030254 -0.03510669 -0.031598926 -0.02887466 0.010213863 0.030723866
-0.01675402 -0.017031174 -0.019098504 -0.009006828 -0.0020232499 0.035106573 0.049369987 -0.035542756
0.026953232 0.0350202 0.027777005 -0.010641802 -0.03606441 -0.015600763 0.041568253 0.012149464
0.027562324 0.029140946 -0.019368166 0.032707933 -0.0009792149 0.016271356 0.025232907 -0.003095895
-0.03672027 -0.01342221 0.04569311 -0.04434187 0.0043544993 -0.035049707 0.031806346 -0.046252646
-0.03210141 0.013234433 -0.035772663 0.0073177926 0.04348467 -0.048844185 0.009269219 -0.040619105
-0.042880006 0.038587045 -0.020871937 0.02070019 -0.03292793 -0.043517668 0.021402445 -0.048395623

fc1.bias f4 [120]
00000000: c093 d13a 00d0 67ba 7599 01bd 8015 103c
00000010: e9df 3d3d 506a 16bb 0db1 a8bc 3aa5 933c
00000020: 71bd 403d 6a0f 23bd 00b7 aebc a0b7 dbba
00000030: daa6 d83c e3f9 2b3d 22b1 ab3c 70ec d1bc
00000040: 0ec2 e63c 1116 263d a2a7 e93c 98dc 1c3c
00000050: 8022 febc 235c fbbc 00a3 5b39 f2e3 ef3c
00000060: 40fe c6bb 7ea1 bb3c 806e bdb9 4372 3e3d
00000070: 70c3 21bd 1200 cd3c c8c2 3e3c 2acd debc
00000080: 2de8 453d 655d 2f3d 3873 2a3c 1d04 133d
00000090: 82cf a93c 646e 673c dd0c 383d ef41 203d
000000a0: 0af6 27bd db49 16bd 19d1 363d 8c5e 383c
000000b0: 7898 173c aacf 8d3c 2453 633c 93ed 073d
000000c0: 8aba e0bc 5f10 173d a0de 603b f975 143d
000000d0: d95d 2a3d 82b8 e83c 7a88 ca3c b442 17bc
000000e0: 4a8c 30bd 0d5a eabc 8ae2 a23c 42e3 2abd
000000f0: 51b8 3d3d 0088 4639 7df1 febc 9eed c23c
00000100: 948b 4bbc cb4b 323d 008a 4039 b22e 44bd
00000110: d0b3 9dbb d49e 3bbc c515 06bd 4cd3 96bc
00000120: e2c7 e93c fa1f c73c 5d58 2c3d a029 b83a
00000130: 6015 3cbc e882 103c 9d14 fbbc 30ce d53b
00000140: a0cf 2dbc 799c 413d 0b8b 403d 3089 f2bc
00000150: 1631 98bc 7972 053d 1ad8 e93c f255 eb3c
00000160: 8182 323d d071 b03b b0af 44bd a8c4 50bc
00000170: f2ce 34bd e64d 2bbd bfd2 153d 4096 24bd
00000180: 5f8a 113d 258a 2dbd 1697 e53c acfa 1fbc
00000190: dd29 33bd 0885 44bc e6bf 88bc d1a9 363d
000001a0: 1c63 92bc 2896 86bb c827 19bc 0041 bcbc
000001b0: ba9c b53c 8cae 423c d573 11bd f2e7 ef3c
000001c0: 6776 1b3d 5e47 02bd 7bc1 163d 0023 2d39
000001d0: 547d 87bc 521e af3c de14 c83c 7bf8 193d
0.0015989468 -0.0008842945 -0.03164049 0.0087941885 0.046356115 -0.002295155 -0.020592237 0.018023122
0.047055665 -0.039809622 -0.021327496 -0.0016763099 0.026446749 0.041986357 0.020958487 -0.025625437
0.028168704 0.040548388 0.028522316 0.009574078 -0.03102231 -0.030683583 0.0002094619 0.029283497
-0.0060727894 0.022904154 -0.00036131218 0.046495687 -0.039493024 0.025024448 0.011643119 -0.02719744
0.048317123 0.042813677 0.010403447 0.035892595 0.02072883 0.01412544 0.044934142 0.03912538
-0.041006126 -0.036691528 0.044633005 0.0112530105 0.00925266 0.017310936 0.013874803 0.033185553
-0.027432699 0.036880847 0.0034312382 0.03624532 0.041593406 0.028408293 0.02472328 -0.009232212
-0.04310254 -0.028607393 0.019883413 -0.041720636 0.046318356 0.00018933415 -0.03112101 0.023794945
-0.012423415 0.043529313 0.00018361956 -0.047896095 -0.004812695 -0.011451442 -0.032735605 -0.018411301
0.028537694 0.02430724 0.042076457 0.0014050491 -0.011479706 0.008820273 -0.030649478 0.0065248236
-0.010608584 0.047268365 0.0470076 -0.029606432 -0.018578093 0.032579873 0.028545428 0.028727505
0.04358149 0.0053846613 -0.04801911 -0.012742199 -0.04414267 -0.041822337 0.036577936 -0.040182352
0.03553235 -0.042368073 0.028026145 -0.009764355 -0.043741096 -0.011994608 -0.016693067 0.044595543
-0.017869525 -0.0041072555 -0.0093478635 -0.022980213 0.02216946 0.0118824355 -0.035510857 0.029285405
0.037954714 -0.031806342 0.03680561 0.00016511604 -0.016539253 0.021376763 0.024424013 0.037590485

fc2.weight f4 [84, 120]
00000000: 41be afbd 8efc 893d 04f3 acbd 8a75 b13d
00000010: c8b8 f9bc 3e06 a73d ac28 a03d 547c 723d
00000020: 32ec 42bd 1a52 9f3d f0c0 8cbb 2236 09bd
00000030: 10e6 373d 7890 5b3d 3025 343d be85 913d
00000040: 6391 a9bd 2c6d 9a3d 083e 70bc 4ab0 1cbd
00000050: 8cdd 1dbd 755f 1dbd 9605 a73d c0e8 dd3b
00000060: 747b a2bd ccb4 643d 0422 92bd e920 74bd
00000070: 4837 2d3d d7f0 14bd d297 9d3d 173a a3bd
00000080: c28f 83bd 2f12 39bd e8c3 683d 68c5 753d
00000090: 48df 013d bef5 963d 003e 1b3b 7612 9e3d
000000a0: 40d8 ac3b 882b 3abc 1471 b43d 2428 9a3d
000000b0: a494 a13c b80f 833d 35fd 70bd 9c0b 7b3d
000000c0: e051 523d 008b d23b b850 a7bc 5895 703c
000000d0: 2055 ccbb 5c35 3a3d 00f8 903d ad5d 43bd
000000e0: 5044 593d be42 89bd 5013 fc3b 786b 893d
000000f0: e0ff 883d 6446 5f3d 7486 0e3d a095 103d
00000100: 546b 383d 3010 3dbc 36a9 8e3d 50db be3c
00000110: 10c7 133d a41c f3bc c4d1 9b3d 9e5f ba3d
00000120: 1855 1e3d 6cd3 443d ae5b 8a3d f880 2dbc
00000130: 1cfb 523d 7824 edbc 6a75 52bd 4029 a33d
00000140: c8b6 263c 7883 c93c 204f 88bb 640b 7bbd
00000150: 7ac3 b63d e2eb f6bc c847 24bd 503c 63bd
00000160: 886e 5fbc a88a 44bc 001a a43c 944e 97bd
00000170: 7cab d93c 7156 b1bd f654 8e3d 0c34 a5bc
00000180: cba3 a2bd 9cb8 5d3d 186a 223d 705b 0abc
00000190: c4a4 81bc 9e97 b93d ccc2 bfbc 4491 b03c
000001a0: 379e 89bd 7049 193c f75b a4bd 4071 733d
000001b0: 28dd 6f3d 943c b93c 00ae 41ba c07c 01bc
000001c0: 10d1 a83b ce8a b3bd 80ac 253d 54f6 5b3d
000001d0: baa3 8cbd c27a b53d 26b1 8fbd 488b 4cbd
000001e0: 00bb bc3b 2874 743d 40e2 c73c 76a9 b5bd
000001f0: a44f c2bc a0bc 463b 1ea4 adbd 6a4b b63d
00000200: b7f4 2cbd 7c63 d73c 144f cfbc 404f d5bc
00000210: 5890 89bc cc5f 8c3c 27ea 81bd 8649 2ebd
00000220: 705c 58bc 8067 993c e4ca 753d aa54 b1bd
00000230: 91b1 5ebd b0a2 283d e4fc 453d d87c 47bc
00000240: 7489 5e3d f4af 85bd 9fc2 8cbd 47a4 86bd
00000250: 5e5e f3bc 54c3 ad3d c07d 163d 083f 85bd
00000260: 00ec f03a 40eb c33b c04b 953d dca0 af3d
00000270: 8b5d 21bd 4e38 51bd e051 a8bd 1e67 83bd
00000280: b07f 683c 68cb 3d3c a083 883c 9814 a43c
00000290: fc02 9fbc a48d 843d ecc3 953d 42fb 923d
000002a0: 20b4 d43b fcb9 dc3c 9085 783d 94e5 dd3c
000002b0: 4434 ac3d a8ad 3dbc 7371 83bd 44ba 973d
000002c0: 90e0 6ebd 8010 a2bb b63c a83d 181a d63c
000002d0: 889b 93bc 34bc 91bd 7045 1a3d 083f d53c
000002e0: 39b8 35bd e8c7 6a3d 9040 fa3b ccdb 063d
000002f0: 401f 243c 9492 313d fdb0 67bd 30f7 a93c
00000300: 28a5 4ebc c2f4 2bbd b6a9 9e3d cc54 bcbc
00000310: 2c8d cfbc 204d e3bb 14c2 89bc b8af 7fbd
00000320: d0a0 7ebd dc67 193d c4be 223d 046c 133d
00000330: 98dc 8f3d 50e3 0abc 6c44 ac3c 98f3 9b3c
00000340: 3b73 38bd 20d5 07bc 813f 8abd 641a 56bd
00000350: 0c0c bcbc 7ceb 5f3d 28df 933c 3c32 3a3d
00000360: 9c5a 9dbd 0088 f6ba d017 a2bd 6408 4a3d
00000370: b3bf b1bd a4eb b13d 706e 7d3d e9d1 81bd
00000380: 6cbf 923d 2862 763d cc73 163d d06e e7bb
00000390: 8c0b 94bd 8c18 0f3d 08ba 793d 509a ee3b
000003a0: bc29 a93d 360a 813d 427e a63d f150 3fbd
000003b0: d11b 61bd 7095 ad3c f0bd 8abd 70ca 293d
000003c0: b236 4abd 5c36 94bc c020 7a3c 4cdc 213d
000003d0: a094 9bbd cc81 a13d 50c0 033c ec08 ad3d
000003e0: 8497 cc3c 158c 3bbd 15a6 36bd 50c0 ee3c
000003f0: 6430 683d 2729 2ebd 6eee 61bd f844 c73c
-0.0858121 0.06737624 -0.08444789 0.08664997 -0.030483618 0.081554875 0.078202575 0.0592006
-0.047588535 0.077793315 -0.004295461 -0.03349889 0.04489714 0.053604573 0.043980777 0.071055874
-0.082796834 0.07540354 -0.014663227 -0.03825406 -0.03854136 -0.038421113 0.08155362 0.0067721307
-0.07933703 0.055836484 -0.07135394 -0.059601698 0.04228905 -0.036362495 0.07694973 -0.07970064
-0.06423904 -0.045183357 0.056827456 0.060002714 0.03170708 0.0737109 0.0023688078 0.07718365
0.0052748024 -0.011362918 0.088106304 0.075271875 0.019724198 0.063994825 -0.058835227 0.06129037
0.051347613 0.0064252615 -0.020424232 0.014684044 -0.0062357336 0.045461044 0.07078552 -0.047696758
0.053043664 -0.06702183 0.007692732 0.06709951 0.06689429 0.05451049 0.034796193 0.035298944
0.04502423 -0.011539504 0.06965868 0.023297936 0.036078513 -0.029676743 0.07608369 0.09100269
0.03865537 0.04805319 0.06755768 -0.010589831 0.051509008 -0.028948054 -0.051381506 0.07966852
0.010175414 0.024598822 -0.004159823 -0.06129016 0.08924003 -0.030141775 -0.04010752 -0.05547744
-0.013637193 -0.011995949 0.020031929 -0.073880345 0.026571028 -0.086590655 0.06949799 -0.02016642
-0.07941397 0.054131135 0.03965196 -0.008444652 -0.015825637 0.09062122 -0.023408316 0.021553643
-0.0671963 0.009355888 -0.080253534 0.059434175 0.05856052 0.022611894 -0.0007388294 -0.007903278
0.0051518753 -0.08766709 0.040447712 0.053701714 -0.06867166 0.08861305 -0.0701621 -0.049937516
0.005759597 0.059681088 0.024399877 -0.08870213 -0.023719616 0.0030324832 -0.084785685 0.08901103
-0.042225566 0.026292555 -0.025306262 -0.026038766 -0.016792461 0.017135523 -0.06343489 -0.042550586
-0.013205633 0.01872611 0.060007945 -0.086587265 -0.05436856 0.041170776 0.04833688 -0.012175761
0.054330304 -0.06527701 -0.068730585 -0.06574302 -0.029708084 0.084845215 0.03674102 -0.06506163
0.001838088 0.0059789717 0.07289839 0.08575603 -0.03939585 -0.051079087 -0.082187414 -0.064161524
0.014190599 0.01158414 0.016664326 0.020029351 -0.019410603 0.06472328 0.0731276 0.0717683
0.006491199 0.026944153 0.06067425 0.02708701 0.084084064 -0.011577047 -0.06418123 0.07408574
-0.05831963 -0.0049458146 0.08214705 0.02613549 -0.018018499 -0.07115975 0.037663877 0.026031032
-0.04436514 0.05731955 0.007637091 0.03292446 0.010017216 0.04335268 -0.056565274 0.020747751
-0.0126126185 -0.041981466 0.077472135 -0.022989653 -0.02533587 -0.0069366843 -0.016816176 -0.062423438
-0.06216508 0.037452564 0.03973271 0.035991684 0.07024497 -0.008477047 0.02102872 0.019037053
-0.045031767 -0.008290559 -0.06750394 -0.05227126 -0.022954963 0.054667935 0.018050745 0.045458063
-0.07683298 -0.0018808842 -0.07914698 0.04932441 -0.08679142 0.08687523 0.0618729 -0.06338865
0.07165417 0.060152203 0.036731526 -0.0070627704 -0.07228765 0.03493552 0.06096843 0.007281579
0.08259913 0.06300776 0.081295505 -0.04670805 -0.05495817 0.021189421 -0.06774509 0.041452825
-0.049368568 -0.018092327 0.015266597 0.039516732 -0.07596707 0.07886085 0.008041456 0.08448967
0.024974592 -0.04578789 -0.044591982 0.029144436 0.056686774 -0.042519715 -0.055159025 0.024324879

fc2.bias f4 [84]
00000000: c8e0 36bc 03f2 09bd d07e 103d b0b7 21bd
00000010: 2c0c ab3d e826 893c b028 fc3c 40c9 36bb
00000020: 253d a9bd 8eef a8bd b884 123d 68d4 7b3c
00000030: fd7d 81bd 82df acbd 6090 573d 0a4c 0fbd
00000040: 00fe 6e3d 3c84 58bd a011 26bb 26a9 19bd
00000050: e2a5 1cbd 3cd6 dbbc d056 ad3d 68f5 8bbd
00000060: 2b26 45bd 2729 9dbd 70a4 86bd 3822 363d
00000070: a0b2 153d ae2e b7bd a4bf 88bd 4726 adbd
00000080: 3223 963d 4086 b6bc dce1 c1bc 20bd 77bc
00000090: f6ba 7fbd 16f0 b63d 455c 62bd c0e0 b03d
000000a0: 20f7 ba3c 6839 b53c 1061 c7bc 4eaf 91bd
000000b0: 946d 983c 246c d33c 3c05 f43c a06e 06bb
000000c0: 98ce 7f3d 44e6 713d 7098 c8bc 5e4a ba3d
000000d0: e8c6 98bc 6894 153d 0032 6ebb 8cd6 10bd
000000e0: 8c92 9abd d2b4 803d 46b9 abbd 1cec d2bc
000000f0: 8c37 c1bc db4c b0bd 8774 b0bd 00eb 9539
00000100: 646f dcbc 509a 7bbc 0804 35bd e03b a4bd
00000110: c8f2 aa3d 18d4 dbbc 00f9 f1b9 1e2a afbd
00000120: e72d 8cbd 5c32 74bd e46b 753d d586 66bd
00000130: 2746 4cbd dad3 833d 2a12 87bd 2479 703d
00000140: b089 073c 1e57 a13d a2ee a03d c6af 8abd
-0.01116199 -0.033678066 0.035277188 -0.03948182 0.08351931 0.016742185 0.03078112 -0.002789095
-0.082636155 -0.082488164 0.0357711 0.015370466 -0.063228585 -0.08441068 0.05262792 -0.034984626
0.058347702 -0.052860484 -0.0025340095 -0.03751483 -0.038244136 -0.026835553 0.08463824 -0.06833917
-0.048132103 -0.07673865 -0.06574333 0.044466227 0.036547303 -0.0894445 -0.066771775 -0.084545664
0.07330932 -0.022280812 -0.023667268 -0.0151207745 -0.06243416 0.089325115 -0.055263776 0.08636618
0.022822917 0.0221221 -0.024338275 -0.07113515 0.018606938 0.025808401 0.029787652 -0.0020512715
0.062452883 0.05905749 -0.02448675 0.09096216 -0.018649533 0.036518484 -0.003634572 -0.035360858
-0.07547483 0.06284489 -0.083849475 -0.025747351 -0.023586057 -0.08608409 -0.08615976 0.00028594583
-0.026908584 -0.015356615 -0.044193298 -0.08019233 0.08347088 -0.026834533 -0.00046152622 -0.08552955
-0.06844693 -0.05961834 0.059917346 -0.05628093 -0.04987159 0.06436892 -0.065952614 0.05870928
0.008272573 0.078779444 0.078580156 -0.067718074

fc3.weight f4 [10, 84]
00000000: 2673 593d 166c 663d d0e2 9cbb 2633 84bd
00000010: acd4 9bbd 4e34 debd 1965 983d 0b82 aabd
00000020: 08c8 5dbc 0911 aa3d 4b7c b73d a2ff c1bd
00000030: 85d7 8f3d 9c40 d0bd ca96 d5bd fbc2 cf3d
00000040: 6b18 adbd 5ab8 3c3d 0685 7d3d 8148 73bd
00000050: 023b 093d 8cdd 803c 26c8 97bd 133d d83d
00000060: a43f 91bd 9e0f 313d 8d1e ab3d 3076 06bc
00000070: 5031 29bc 81f4 7bbd b272 7ebd 00c2 9a3a
00000080: e01a 26bc 2c21 9d3c 300c 9ebd 4d7b d23d
00000090: 548d 1cbd 5052 373c baf4 94bd e805 22bd
000000a0: 0c63 863c 78dc 29bd 10b4 e9bb bc67 aa3c
000000b0: 42be 6cbd 5010 06bd 6436 acbc c29f 4ebd
000000c0: a6d6 c9bd 74e8 f6bc 581a 4ebc 154b 823d
000000d0: 028e 133d 7153 843d dae4 183d 101c edbb
000000e0: 56fd 5f3d b494 19bd 9e04 283d 64c4 aa3c
000000f0: a0bc d0bd da88 d0bd 4b77 c1bd aa3e debd
00000100: 164d 123d 507f d43b dea9 133d 9bcf da3d
00000110: 3db2 9e3d 71ff d23d 1a20 6a3d 507a 20bc
00000120: 6d5f 8abd d158 db3d 1a87 263d 0481 dcbd
00000130: e18a 943d c8e0 5cbc 9096 603c 4290 3f3d
00000140: 01be bb3d 25cd 943d 59c5 c53d eb99 d33d
00000150: 17db b3bd 4ea1 20bd 6634 96bd a0a0 84bc
00000160: a743 a23d 4ef8 213d f6f8 3b3d 32dc 0d3d
00000170: 869f 173d d39b c7bd 12bc d1bd 3036 d4bb
00000180: 784e 01bd 0f73 843d 2593 a43d 0baa 943d
00000190: 4d10 c1bd 643e ca3c c698 483d bc3b 79bd
000001a0: 00b3 143a f069 e23b 1b78 9c3d 48c7 ecbc
000001b0: b82f 20bc c51e db3d 9698 03bd a688 abbd
000001c0: 2efc 24bd b77e d1bd 706a abbd b85c 5f3c
000001d0: 02be aabd 4a4a 4dbd 6f16 8cbd 642a e73c
000001e0: c096 86bd b82b 57bc 3cc9 c9bd baa2 a6bd
000001f0: a479 2abd 311c d13d 461b 2abd 5e0e 623d
00000200: bcd2 c9bd 5ed1 763d fc48 bc3c ba9b 703d
00000210: 50da f13b 1e8f 6b3d 6817 29bd 299d 9c3d
00000220: ed20 863d 18af c1bc fb80 c0bd e437 913c
00000230: 4fb4 903d 7aa6 95bd 6229 5f3d bfd6 d83d
00000240: 4374 a43d 9d62 c6bd 4560 bf3d 6694 adbd
00000250: 50b5 4d3c 15e7 de3d 0050 22bb 86d1 d1bd
00000260: fd36 a73d 60e8 4cbc 9683 433d c4d5 0abd
00000270: c61d 83bd 1a5d 5f3d 92c9 7a3d cc91 edbc
00000280: 4c04 843c a292 a2bd d7a6 a63d 129f 2d3d
00000290: bce7 fa3c 55e5 d1bd e0cf 1bbc 957e 66bd
000002a0: 6725 9c3d 34b2 a63c d090 9dbd b695 653d
000002b0: 8266 a1bd 2386 943d 4e4e 32bd 6ad9 293d
000002c0: b30a c4bd 22fe 703d f946 c63d 33d2 8e3d
000002d0: 8ab0 9dbd 7692 233d 9c62 873c 895e a43d
000002e0: 65d8 a53d 5061 323c 7e66 cdbd ef7a a63d
000002f0: c02e af3b 438e d53d cdb5 833d 3f07 a0bd
00000300: 1c36 f53c 8b9a b93d e49e cd3c 4a2e 4d3d
00000310: 98e8 cebd 866a 65bd ecec d33c 1ad2 1b3d
00000320: c76b d33d eb1a 8c3d 2824 22bd 78f0 39bc
00000330: a023 82bc 6940 d3bd 96d3 97bd fc39 dabc
00000340: ef86 ba3d 848f a23c 5b43 4ebd cd9f 8cbd
00000350: d169 b63d 509e 19bc 8050 3cba 415f c93d
00000360: 9a6f ddbd 3e01 653d 6fa3 813d e92b 883d
00000370: dcd5 81bc 2425 88bd f511 b53d 6747 5dbd
00000380: db2b cfbd 27d0 c6bd eb9f d23d ba7e 543d
00000390: 9fe8 9e3d 2e4f 093d 34ea f5bc 100f 3a3c
000003a0: 7db7 ba3d cd42 a33d eae1 7fbd 62b2 783d
000003b0: f860 4fbc 9878 41bc a221 123d 3a1b 0fbd
000003c0: 2333 a03d c425 9c3c 2281 82bd f417 9dbd
000003d0: a2fd 89bd 9ce9 8ebd b56f b63d 7e0c 2bbd
000003e0: d243 0c3d 8c1d bb3c a076 4cbc 1df7 ac3d
000003f0: 3dcd 65bd e8aa 2abd 53d8 863d b5a7 c33d
0.05308833 0.056255423 -0.0047877803 -0.06455068 -0.07608923 -0.1084982 0.07441158 -0.08325585
-0.013536461 0.083040304 0.08959254 -0.09472586 0.07023529 -0.10168573 -0.10429151 0.101446114
-0.08451923 0.04607425 0.06189444 -0.059395317 0.03350354 0.015730642 -0.07411222 0.10558524
-0.070922166 0.043227784 0.083554365 -0.008206889 -0.010326698 -0.061512474 -0.0621211 0.0011807084
-0.010138243 0.019180857 -0.07717168 0.10277424 -0.03822072 0.011189058 -0.072732404 -0.039556414
0.016404651 -0.04147002 -0.007132061 0.020801418 -0.05779863 -0.0327304 -0.02102203 -0.050445326
-0.09855394 -0.03014014 -0.012579523 0.06361977 0.0360241 0.06461228 0.037327625 -0.0072360113
0.05468496 -0.03749533 0.04102003 0.0208456 -0.10192227 -0.10182352 -0.094465815 -0.10851796
0.035718046 0.0064849034 0.03605067 0.10684129 0.0774884 0.10302628 0.05715952 -0.009794787
-0.06756482 0.107103 0.040656187 -0.10766795 0.072530515 -0.013481326 0.013707772 0.046768434
0.091671 0.07265691 0.09656782 0.10332092 -0.087820224 -0.039216332 -0.07334213 -0.016189873
0.0792306 0.039543442 0.045891725 0.034633823 0.037017368 -0.09746518 -0.1024095 -0.006476186
-0.031568974 0.06467258 0.08035878 0.072589956 -0.09426937 0.024687953 0.04897382 -0.060847983
0.0005672425 0.0069096014 0.07640096 -0.028903618 -0.009777002 0.10699228 -0.03212794 -0.08375673
-0.04027956 -0.10229247 -0.08369911 0.013632946 -0.08337022 -0.050119676 -0.06840216 0.028218456
-0.06571722 -0.013132982 -0.098528355 -0.081365064 -0.04161991 0.10210455 -0.041529916 0.055189483
-0.098546475 0.06025826 0.02298402 0.058742262 0.007380761 0.057509534 -0.041282088 0.076471634
0.06549249 -0.023643062 -0.09399601 0.017726846 0.07065641 -0.073071435 0.054482825 0.105878346
0.08029988 -0.09686778 0.09344534 -0.084755704 0.012555435 0.10883919 -0.0024766922 -0.102450415
0.08164785 -0.012506574 0.047732912 -0.03389527 -0.06402163 0.054532148 0.06122739 -0.029000185
0.01611533 -0.07938124 0.08137291 0.04238803 0.030628078 -0.1024882 -0.0095100105 -0.05627306
0.076243214 0.020348646 -0.076936364 0.05605098 -0.0788088 0.07252147 -0.04353171 0.041467108
-0.09572353 0.05883611 0.09681506 0.06973686 -0.07699688 0.039934598 0.016526513 0.08025844
0.080979146 0.010887459 -0.100293145 0.081289165 0.005346149 0.10427525 0.0643116 -0.07813882
0.029933028 0.0906268 0.025100179 0.050092973 -0.101029575 -0.05600979 0.02586981 0.038042165
0.10323291 0.06841072 -0.039585263 -0.011348836 -0.015886128 -0.1031502 -0.07413404 -0.026638977
0.09107768 0.019843824 -0.050357204 -0.06866417 0.08906902 -0.009376124 -0.00071836263 0.09832621
-0.10812302 0.055909388 0.063300006 0.06649 -0.015849046 -0.06647709 0.08841316 -0.054023173
-0.10115787 -0.09707671 0.10284408 0.05187867 0.07759213 0.033522777 -0.030018903 0.01135613
0.09117029 0.079717256 -0.062471308 0.060716994 -0.0126573965 -0.011808537 0.035676606 -0.034938075
0.078222536 0.019060977 -0.063722864 -0.07670584 -0.0673783 -0.06978151 0.08908025 -0.04175996
0.034244366 0.022841237 -0.012479454 0.084455706 -0.056103934 -0.041666895 0.06584229 0.09553472

fc3.bias f4 [10]
00000000: 8e1c 30bd a5df a73d 609a 3f3c a7fc 813d
00000010: e091 57bc a365 843d fe4e 583d 75eb b23d
00000020: 7b4e af3d 102a 8cbc
-0.042995982 0.08196954 0.011694521 0.06347018 -0.013157338 0.06464698 0.052809708 0.08736316
0.08559891 -0.0171099
